notebooks/Reacher-DDPG/policy_target.pth (torch, 54053 bytes, 6 tensors)

policy_network.0.weight f4 [128, 33]
000000 8b 25 2a be de 19 51 bd d9 ac 05 3d 5b 49 28 be
       -0.16615884 -0.05105006 0.032635543 -0.16434233
000010 ee e0 1c 3d b0 5f 0e 3e c0 2c 44 be 73 38 0d 3d
       0.038300447 0.1390369 -0.19157696 0.034477662
000020 21 0e a0 be be 4a 76 be fa 37 0d be fe 2c c7 bd
       -0.3126078 -0.2405195 -0.13790885 -0.097253785
000030 6c cf a2 3d c5 fc 72 be 07 a2 87 3e 55 ad 0e bd
       0.07949719 -0.23729236 0.26490805 -0.03483327
000040 11 be 31 be fb 54 c1 bd 6b f5 9d bd 05 99 d3 bc
       -0.17357661 -0.09440037 -0.077128254 -0.025829801
000050 2a 79 12 3d a7 89 09 bd 15 94 25 3e 60 64 68 be
       0.035760082 -0.03357854 0.1616977 -0.2269454
000060 86 01 13 3d 49 99 df 3c b8 42 2a be 27 de eb bd
       0.035890125 0.027294772 -0.16627014 -0.115169816
000070 a2 8e ca 3e 0c e7 c8 3d b9 e3 83 3d 74 62 ec bd
       0.39561945 0.09809694 0.06439919 -0.11542216
000080 f7 11 95 3f e3 63 f9 bd 8f 15 92 3e 0d 2c de bd
       1.1646107 -0.12177255 0.28532073 -0.10848246
000090 90 ac 82 be 46 e9 27 3e 2f 85 0c be 4b 1f 57 bd
       -0.2552228 0.1639758 -0.1372268 -0.052520078
0000a0 39 e7 94 bd 9e 4f fc bd 46 88 5d bd e2 a1 3b be
       -0.07270665 -0.12319873 -0.05408504 -0.18323472
0000b0 8e 39 87 3b d7 dd 97 3d f9 d3 37 3c e2 f0 08 3e
       0.004126734 0.074153595 0.011219972 0.1337314
0000c0 02 19 f6 bd e9 42 98 bc b3 8b bd 3d 34 5e 10 bd
       -0.120164886 -0.018586593 0.09255161 -0.03524609
0000d0 bd 89 b0 3d cb e9 01 3e 0e 44 00 bc 25 c8 7f 3d
       0.086200215 0.12686841 -0.0078287255 0.062446732
0000e0 1e 7d ce be 70 2d ed 3c 2a e3 0e 3e 47 e2 34 3d
       -0.40329832 0.02895233 0.13953844 0.044161107
0000f0 fb f3 96 3e b5 31 8b 3e 49 d9 10 bd f9 75 2f be
       0.29483017 0.2718636 -0.03536347 -0.17134847
000100 c0 5e ee bc 19 2e 79 bf 6f c0 fd 3d fd a8 ec bd
       -0.029097915 -0.97335964 0.123902194 -0.115556695
000110 fc 8b 86 3e ed dc 23 3d f6 b6 39 3e 05 b5 29 3e
       0.26278675 0.040005613 0.181362 0.1657296
000120 b7 c8 3e 3e 46 9a 63 3c dc e6 1e be 96 a9 f9 bd
       0.18631254 0.013891762 -0.15517753 -0.12190549
000130 ba 09 29 3d b6 b8 9b 3d 03 97 46 3d 43 72 ab be
       0.04126904 0.0760359 0.04848386 -0.33485612
000140 51 c0 2f 3e 59 f6 88 3e a0 dc d2 bd 41 0f 2b be
       0.17163207 0.26750448 -0.10295987 -0.16705038
000150 e3 b1 7b bc fc bf cc 3b ce a0 07 3d f7 63 0c be
       -0.015362236 0.0062484723 0.03311234 -0.13710009
000160 1b b1 96 be 36 84 dc 3d 70 84 89 3e 23 5b 01 be
       -0.29431996 0.10767405 0.26858854 -0.12632422
000170 58 8e 13 3e ef f9 71 3e 8a 27 46 3c f4 8d f8 bc
       0.14409769 0.23630498 0.012094388 -0.030341126
000180 63 70 79 be 99 84 82 3d ff 11 cd 3d 86 2b 44 be
       -0.24359278 0.06372947 0.10013198 -0.19157228
000190 0f d0 35 be 74 02 f0 bd 96 da 15 be 5a 14 92 3d
       -0.1775515 -0.11719218 -0.14634165 0.07132788
0001a0 1d 03 cd bd 8e 1e 0a 3e ca ba 4b 3e e5 22 43 bd
       -0.100103594 0.13488218 0.19895473 -0.0476407
0001b0 13 25 6e 3d 56 69 86 bc 3d 54 65 bd 4c 97 0e 3e
       0.058140825 -0.01640765 -0.05598854 0.13924903
0001c0 3e da f0 3e f6 79 81 bd 99 7e 86 3e d5 ca ec ba
       0.47041506 -0.0632209 0.2626846 -0.001806582
0001d0 47 ac dd 3d 56 27 4b 3c dd c1 e0 bc a3 86 34 3d
       0.10823875 0.012399515 -0.027436191 0.044073712
0001e0 84 10 3d 3d 23 95 a0 bd 52 1e 1b be bd c3 20 3b
       0.04615833 -0.078409456 -0.15148285 0.0024530732
0001f0 51 9a f6 3d f3 c0 9d be c0 a3 51 be b8 7c 3c bc
       0.12041152 -0.3081127 -0.20472622 -0.011504345
000200 04 dc d6 3c e5 d6 2a 3e a2 13 41 bd 8c 7e a8 3d
       0.026227959 0.16683538 -0.047137864 0.08227262
000210 d9 f0 85 3e 63 20 27 be c8 2a 42 bd c7 f6 43 bc
       0.26160315 -0.16320948 -0.04740408 -0.011960692
000220 a4 ed bf 3c 8e f5 2d 3e 51 08 31 3e e6 bd 91 bd
       0.023428746 0.16988203 0.17288329 -0.071162984
000230 a9 bd 85 bd 90 f8 c4 bd 20 95 d6 3d e8 74 fb bd
       -0.065303154 -0.09617722 0.10477662 -0.122781575
000240 b0 8d db bd b9 19 86 3d e4 ab 84 3e 3e be a1 bc
       -0.10720384 0.06547875 0.25912392 -0.019744035
000250 e3 0a b2 bd e7 b4 23 bd 1a 3a dd 3d c1 f5 77 bd
       -0.08693483 -0.039967444 0.108020976 -0.060537104
000260 ec 57 69 bc 3b 43 37 3d 9a a6 bb bd c1 ff 3b bd
       -0.014242154 0.04474185 -0.09162636 -0.045898203
000270 0f 72 76 bc 40 87 db bd a3 35 8a bd 48 85 78 be
       -0.015041842 -0.10719156 -0.06748512 -0.24269593
000280 34 d0 ad be cf 1c f9 3d dd 03 bd 3d d0 1a 86 bd
       -0.3394791 0.12163698 0.092292525 -0.06548083
000290 62 e5 0d 3f 9e 3f 15 be 67 8c d9 bd b4 7a 4c be
       0.55428135 -0.1457505 -0.10622483 -0.19968683
0002a0 3c 4c 52 bc da 81 84 3c 84 e0 9d bd c3 4e 12 3e
       -0.0128355585 0.0161752 -0.077088386 0.14287858
0002b0 9d 9e b4 3e 32 1f 7c be 07 26 90 bd cc 9f 09 3d
       0.35277262 -0.24621275 -0.07038503 0.03359966
0002c0 bd 84 d1 3d 3e 0b c1 bd 8f 83 f0 3d 3f 73 7b be
       0.10230396 -0.094259724 0.11743843 -0.24555682
0002d0 dd d8 77 be 74 16 fa bc ba cc 80 bd fc 2c eb bc
       -0.2420382 -0.030528285 -0.062890485 -0.028707974
0002e0 12 4d 98 bd f0 03 58 3e 38 93 34 be 19 de ff bd
       -0.07436575 0.21095252 -0.17634284 -0.12493534
0002f0 9d f1 8a 3e d0 22 34 be cc 64 a1 be 2c 0e 61 3e
       0.2713746 -0.17591405 -0.31522214 0.21978062
000300 00 b6 d4 3d 34 56 6b 3d c1 c0 29 be 02 a7 bb bd
       0.10386276 0.057455257 -0.16577436 -0.091627136
000310 c8 75 08 be 30 df 90 bd dc 77 fc 3b a7 14 42 3c
       -0.1332618 -0.0707382 0.007704718 0.011845744
000320 f3 df a4 be ac c2 b6 bd cf 54 9a 3e 55 75 99 bb
       -0.3220211 -0.089238495 0.3014283 -0.0046831765
000330 16 a9 32 3d 68 4e 80 be fd b7 43 3e 24 e4 4a 3d
       0.043618284 -0.2505982 0.19113155 0.049533978
000340 66 09 89 be 54 cb 35 bd 08 fb 25 be 26 a5 ab bc
       -0.26764983 -0.044383362 -0.16209042 -0.020952772
000350 15 1e 74 3e 0b 9a 35 be d0 aa 0a bd 6c a1 cb bd
       0.238396 -0.17734544 -0.033854306 -0.09942898
000360 d3 2c b3 3c 09 ad 4c 3d 45 6a d7 3d ff 20 7f 3e
       0.02187196 0.049969707 0.10518316 0.24914931
000370 13 0e 4e 3e 0e d2 9d be 7f 40 0d 3e 21 31 10 be
       0.20122556 -0.30824322 0.13794135 -0.14081241
000380 87 fb ae be d6 54 1b be 24 c3 25 be a3 e5 2c be
       -0.34176275 -0.15169081 -0.16187721 -0.16884474
000390 27 26 eb 3d b1 78 cf 3d ca d6 e7 3e 5b 48 94 bd
       0.11481886 0.10130442 0.4528106 -0.07240363
0003a0 4b 3e 49 bd d5 94 04 be 1b 1d 50 be db a0 28 be
       -0.049131673 -0.129474 -0.20323603 -0.16467611
0003b0 1f 42 1b bd 76 43 ca 3d 99 39 6a 3d dd a5 51 3e
       -0.037904855 0.098761484 0.057183836 0.20473428
0003c0 d1 82 a4 3d c8 7d f8 3c 3d ba 6c bb 19 32 84 be
       0.08032764 0.030333415 -0.003612175 -0.2581947
0003d0 ef 25 c2 bd 04 48 9d bd cd 94 75 be 93 5b 0b 3e
       -0.094798915 -0.076797515 -0.23982544 0.13609152
0003e0 37 83 36 bc 9d 2e 96 3e 92 99 36 3e 83 35 0c 3d
       -0.0111396825 0.29332438 0.1783202 0.03423072
0003f0 82 cd ab be c0 6d 06 3e fe 8f 33 3d ee 35 c5 3d
       -0.33555228 0.13127804 0.043838494 0.09629427

policy_network.0.bias f4 [128]
000000 7e e8 63 3e ce fa d1 bd 04 71 35 be b9 7c 30 bd
       0.22256657 -0.10252915 -0.17718893 -0.043087695
000010 07 ee 86 3e 67 dd a6 3d 0d 35 b7 3d c1 35 59 3e
       0.26353475 0.08147698 0.089456655 0.21211912
000020 0e c5 57 bd 40 e6 26 3e c2 1c a0 3d 9c 91 02 bd
       -0.05267816 0.16298771 0.07817985 -0.031877145
000030 5a cf df bd cf 72 42 3e 30 33 a3 bd 6d 69 cc bd
       -0.10928221 0.18989109 -0.079687476 -0.09981046
000040 7a bf 97 3e 04 4b 24 3e d8 65 1f bd ab 82 2c be
       0.29638273 0.16044241 -0.038915485 -0.16846721
000050 ef fb ee 3d 55 e7 1f 3e 6a 5f 93 3d 9b 99 9b 3e
       0.11669146 0.1561559 0.07195933 0.3039063
000060 ff 88 23 bd 12 c5 9b 3c da 3b 88 3e 63 1b 06 bd
       -0.03992557 0.019014869 0.26608163 -0.03274096
000070 2d 0a 11 bd ac 35 38 3e dd f8 fd 3d 88 4a 15 bd
       -0.035410095 0.17989224 0.124009825 -0.03644803
000080 37 03 b5 be 51 fd 3f 3e 3f 0e 6f bb d7 27 ef 3c
       -0.35354015 0.18748976 -0.0036476997 0.029193802
000090 66 67 39 3e d5 81 16 3e da 2f 7c bd 92 be ef 3d
       0.1810585 0.14697964 -0.061569072 0.1170627
0000a0 d3 46 31 3e 06 5f 89 be 6e 34 1b be 68 14 7a 3e
       0.17312174 -0.2683031 -0.15156719 0.24421847
0000b0 a9 91 ec 3d 40 40 11 bd 04 b6 9d 3e c0 bd 9c bd
       0.1155122 -0.035461664 0.3080293 -0.076533794
0000c0 33 db 39 3e eb 7a 81 3d c1 4e 07 be 58 cb 25 3e
       0.18150024 0.06322273 -0.13213636 0.1619085
0000d0 80 39 08 3e 1f 3c 3c 3e 29 1b 64 bd d7 f7 07 3e
       0.13303185 0.1838231 -0.055689964 0.13278137
0000e0 c6 fe 23 3e c7 c0 c0 3d 0b f5 7f 3e 0f b6 8b bd
       0.16015157 0.09411769 0.2499582 -0.06821834
0000f0 69 d4 31 3e a6 c0 43 bd 09 19 2d be f0 59 96 3e
       0.17366184 -0.047791146 -0.16904081 0.29365492
000100 2a 84 dc 3c cd f9 5a bc d1 c8 61 3e 1a d0 c2 be
       0.02691849 -0.013365221 0.22049262 -0.38049394
000110 0f a2 23 3d 7d c2 d3 3d 29 89 ad 3e 51 16 2c be
       0.039949473 0.1033983 0.33893707 -0.16805388
000120 d7 17 21 3d 46 db 13 3e 36 30 80 3e 4c d7 16 3d
       0.039329376 0.14439115 0.25036782 0.036826417
000130 5b 9f 9c 3e 69 cb 43 3e cc d2 ad 3e f6 a2 c3 bb
       0.3059033 0.19120564 0.33949888 -0.005970354
000140 a6 21 86 3e ac d4 4a bd 3c 85 88 be 85 61 13 bd
       0.26197547 -0.049519226 -0.2666415 -0.035981674
000150 66 fb 8e 3d 22 c5 2b 3e 08 b5 44 bd bf 01 70 3c
       0.06981544 0.16774419 -0.048024207 0.014648854
000160 6f 5b 99 3e 02 97 91 3e e7 ea 8a 3e c8 9d 31 3e
       0.2995257 0.28435522 0.2713234 0.17345345
000170 10 7e f3 bd e8 e8 94 bc d4 9e 1d be 22 4b c1 bc
       -0.11889279 -0.018177465 -0.1539262 -0.023595396
000180 af 1d f4 3c fe 1d a1 3d 02 1d 24 3e f0 12 b8 3d
       0.02979931 0.07867049 0.1602669 0.08987987
000190 eb 49 84 bd 00 57 96 bb dd fc 5e bd 25 5e 1d 3c
       -0.06459411 -0.004588008 -0.054440368 0.009604965
0001a0 b3 c4 2d 3e 4a 9b 32 3e d9 4b f2 b9 10 d8 19 bd
       0.16969566 0.1744205 -0.00046214348 -0.03755957
0001b0 71 1a 4d 3e 86 cd 8d 3d cd f6 d0 3e d3 8e 1c 3e
       0.20029618 0.06923966 0.40813294 0.15288858
0001c0 9d b1 a5 3e d3 0b b5 bd 01 f7 01 be 85 a9 8e 3b
       0.3236207 -0.08840146 -0.12691881 0.0043537044
0001d0 37 df 8e 3e 75 bf b5 3e d0 59 aa 3e 29 ee 31 3e
       0.27904674 0.35497633 0.33271646 0.17376007
0001e0 38 9f a6 3e 48 16 e8 3c cf a1 f9 3d 22 d9 74 3e
       0.3254335 0.028330937 0.12189066 0.23910955
0001f0 1c 94 16 3d 93 f9 b1 3c 04 94 8d 3d 73 2c 52 3e
       0.03676234 0.021725452 0.06912997 0.20524769

policy_network.2.weight f4 [64, 128]
000000 9f 14 e0 be be e0 e5 bd 8d f8 0d 3d a5 2e d8 bd
       -0.43765733 -0.11224507 0.034660865 -0.10555772
000010 ad 58 38 3d ca c5 83 bc ff 47 1c be e0 2e 21 3e
       0.045006443 -0.016085524 -0.1526184 0.15740538
000020 df 0f 5e 3d 5b 7a 40 3e f4 c6 8c be 77 fb c9 3d
       0.054214355 0.18796675 -0.2749554 0.09862416
000030 c6 4e 8a 3d cb db a8 be 4e 92 44 bc 0f 40 11 3e
       0.06753306 -0.3298019 -0.011997772 0.14184593
000040 b7 ba be be 3f 12 c4 3e 9b 13 65 3e 04 07 bb 3d
       -0.37251827 0.3829517 0.2237076 0.091321975
000050 e6 1c 67 3e eb 7f e0 3d dd 81 f9 bc 48 79 e5 3d
       0.22569618 0.109618984 -0.030457431 0.11204773
000060 ea 3d 7f 3c 97 db 0d 3e b0 43 4b 3e 44 a9 4f bd
       0.015578726 0.13853298 0.1985004 -0.050698534
000070 7e 7c d8 be b4 73 63 3e a0 30 47 bd bb 8e cd bd
       -0.4228248 0.22212106 -0.048630357 -0.10036989
000080 41 d7 92 3e 8d d1 d9 bc 4b ab 3a bd 8f a3 c9 bd
       0.2867985 -0.02658918 -0.045573514 -0.098456495
000090 6f 09 38 bd a2 b1 6d bd ab f5 3c be c6 e2 2c 3e
       -0.04493087 -0.058030732 -0.1845309 0.16883382
0000a0 22 6a 1b 3c d6 d0 84 be 9b 03 f8 3d 90 60 38 be
       0.009485753 -0.2594058 0.12110063 -0.18005586
0000b0 74 a3 3a 3d e1 b2 b4 bd 75 2e 9f 3d bf 61 b1 bc
       0.045566037 -0.08823181 0.07772533 -0.021653054
0000c0 76 a9 00 3d 09 f8 65 3e 15 c2 84 be 31 fe 27 3d
       0.03141161 0.22457899 -0.25929323 0.0410139
0000d0 09 b3 86 3e 9d f3 4f 3e 09 95 0d 3d 6a f9 0d 3e
       0.26308468 0.20307775 0.03456596 0.13864675
0000e0 7a b7 04 bf 45 0c bf bd 11 e9 97 3e e2 52 18 3e
       -0.51842463 -0.09328512 0.29670003 0.14875367
0000f0 dc a9 9d bd 6d 0d 47 bd 1c ad c3 3d b2 6f 89 3d
       -0.07698414 -0.04859679 0.09554502 0.06710757
000100 9f d0 1a be b7 63 7c 3e 0a 47 30 be 0e a5 6e 3e
       -0.15118645 0.24647413 -0.17214599 0.23305151
000110 80 01 8e 3d 9a cf b8 3d dc 89 69 bd 13 a1 e0 bc
       0.0693388 0.09023972 -0.05701624 -0.027420556
000120 03 74 a7 3e 23 02 9c 3d 49 e2 3b 3d 6d cd ac 3e
       0.32705697 0.07617595 0.0458701 0.33750477
000130 c2 4b d2 bd 9d 8b 92 bd c3 a4 fb bd 63 53 b9 3e
       -0.10268356 -0.07155535 -0.12287285 0.36196432
000140 66 f2 70 be 5e 61 66 bd 16 a8 fa bd 63 03 be bd
       -0.23529968 -0.0562452 -0.12239091 -0.0927799
000150 28 a4 03 3d e7 79 9a be 54 96 8e 3e c9 9c 9c 3c
       0.032138973 -0.3017113 0.27849066 0.01911773
000160 9c 36 52 3c c4 bd a1 3e cb ab 23 be 0a 60 03 3c
       0.012830403 0.31590092 -0.15983503 0.008018503
000170 ff ad 10 3e b0 8a 18 be d8 6f 1f be 65 e3 c3 39
       0.14128874 -0.14896655 -0.15570009 0.0003736272
000180 2d c8 2d be 35 dd 80 3d 01 3f 61 3d 9b 02 a7 3d
       -0.16970892 0.06292192 0.054991726 0.08154794
000190 b8 f5 71 3e c5 6d be 3d 6b a5 64 3e 8b 52 74 3d
       0.2362889 0.092982806 0.22328727 0.05964903
0001a0 51 11 5b 3e d7 77 27 3e 7c f3 4b be 24 3c cb 3c
       0.21393324 0.16354309 -0.199171 0.02480895
0001b0 e0 30 f8 bd 24 03 ae bd e5 f7 d6 3b d4 28 0a bd
       -0.12118697 -0.08496693 0.006560313 -0.033730343
0001c0 3a 20 e3 bd b8 a4 4b 3d f7 c0 9a 3e d3 64 fb 3c
       -0.11090131 0.049717635 0.30225345 0.030687725
0001d0 b6 09 b8 bd 5a 1d da 39 48 e7 0f 3d 96 cb d6 bc
       -0.08986227 0.0004160207 0.035132676 -0.026220124
0001e0 07 de 8f 3e 2a a0 16 3c b8 83 55 be f8 86 c3 3e
       0.2809908 0.0091934595 -0.20851028 0.3818891
0001f0 7e 21 84 3d cc 47 53 bd c0 1f 2b be 54 70 e9 bc
       0.06451701 -0.051582143 -0.1671133 -0.028495945
000200 e7 d1 2a 3e 37 a1 c8 3e fb 51 06 bd c8 c1 95 3d
       0.16681634 0.39185497 -0.032793026 0.073123515
000210 a5 1a b7 3d 7d 82 ee bd c7 a6 1c be 58 4c db be
       0.08940629 -0.116459824 -0.15297996 -0.42831683
000220 6a 20 13 be 04 5c 4b bd dc 75 02 be f1 d3 e1 be
       -0.14367834 -0.0496483 -0.12740272 -0.4410701
000230 8a 54 47 be ed d4 7c 3d 44 65 37 bd 15 da f4 bc
       -0.19465843 0.0617265 -0.04477431 -0.029889146
000240 fa 65 b6 3d c4 df eb 3e 51 35 ad 3d b4 ca c4 be
       0.08906169 0.46069157 0.08457435 -0.384359
000250 df e1 8b bd 8f 03 1a be 8e 51 7a 3d df 00 82 be
       -0.06830191 -0.1504042 0.061112933 -0.2539129
000260 b8 e8 61 be bd c7 b0 3c 42 05 99 bd 93 bd 41 bd
       -0.22061431 0.021579618 -0.07471706 -0.047299933
000270 90 74 2d bd 0f 87 6d 3b 39 da 9f 3d 85 4f 26 3e
       -0.04234749 0.0036243831 0.078052945 0.16241272
000280 0e 14 26 be 24 38 16 3e c6 14 a9 bd 3c de b1 bd
       -0.16218588 0.14669853 -0.08255915 -0.08684966
000290 44 39 5a be a4 1b 5e 3e bd 67 79 3d 84 08 d9 bc
       -0.21310908 0.21690232 0.06088995 -0.026493318
0002a0 e4 b0 ae 3d 4f d6 b3 bd 8f 42 a1 be 31 94 48 3e
       0.08529833 -0.087811105 -0.31496093 0.1958778
0002b0 0a 40 49 bf 77 f8 75 3e e5 01 64 be 1b 0f a6 be
       -0.7861334 0.24020563 -0.22266348 -0.324334
0002c0 f4 f8 6c 3d a5 8e f0 bd bb c6 ae be 1c ab 99 3d
       0.057854608 -0.11745957 -0.34135994 0.0750334
0002d0 bb a3 3b 3e f9 29 ad 3d 82 79 4f bd dc cf f1 3d
       0.18324177 0.08455271 -0.05065299 0.11807224
0002e0 31 54 18 3e 43 82 ad 3c ee ec 4f 3e a3 f4 57 3e
       0.14875866 0.021180278 0.20305225 0.21089415
0002f0 79 61 a8 bc 39 6b 95 be dc 70 8a 3d 2c 84 c0 bc
       -0.020554291 -0.29183367 0.067598075 -0.023500524
000300 cf e7 ce 3e 06 4d 3a be 80 ab b9 be 8b e9 7e be
       0.4041123 -0.18193445 -0.36263657 -0.24893777
000310 4a 1f 85 bd 10 f9 a0 3e 14 88 82 3e df ca 26 3c
       -0.065001085 0.3144002 0.25494444 0.010180204
000320 a7 4c eb 3d e1 2d 12 3f 60 70 71 bb 3c 7c f9 bd
       0.1148923 0.57101256 -0.0036840662 -0.12181899
000330 77 2d a1 be 65 91 a6 be 5d d4 56 3e db 27 6f bd
       -0.3148 -0.32532802 0.20979448 -0.05838762
000340 9b 1a 4e bf 9c d0 66 bc 72 d1 1e bf f2 fd 23 be
       -0.80509347 -0.014087822 -0.6203834 -0.16014841
000350 9b 6e 86 3d 6b de 35 be 77 d7 03 bd 62 35 0f 3d
       0.06564065 -0.17760627 -0.032187905 0.03496302
000360 29 a5 64 3d b8 b3 35 3d 1d d5 1f 3d 95 49 25 be
       0.05582157 0.044360846 0.0390216 -0.1614135
000370 0d 62 b6 be d5 a1 5b 3d 94 48 4e 3d cf 45 d7 bd
       -0.35621682 0.053621132 0.050362185 -0.10511362
000380 47 bd 03 bf b9 2d 32 3d 12 32 a3 3b 24 c5 aa 3c
       -0.5146069 0.043500636 0.004980334 0.020845957
000390 9b 5a 13 be 4d 77 c2 be 07 cc 44 be ee 33 20 be
       -0.14390032 -0.37981644 -0.19218455 -0.1564481
0003a0 f3 eb bb 3d 76 63 b9 bd d0 6d bc be 6a 70 0a bd
       0.09175863 -0.09052174 -0.3680253 -0.033798613
0003b0 c8 01 a1 3d 81 1b 5f 3e 5e 9e 80 3e 2f fa 5f 3e
       0.07861668 0.21787836 0.25120825 0.21872781
0003c0 aa a0 72 3e 57 c5 a3 be aa cc e8 3c e9 f0 06 3e
       0.23694101 -0.31986496 0.028417904 0.13177837
0003d0 1a 17 3c bd cb da b6 3d 29 d7 0e 3e a4 14 18 3e
       -0.04592047 0.0892845 0.13949265 0.14851624
0003e0 6e ff 1a be 7e 68 e4 3d c5 98 09 3e 10 6a cd bd
       -0.15136501 0.11152743 0.13437183 -0.100299954
0003f0 f2 ce 01 bf 5a 58 34 be 6d 58 21 3e d7 97 4e be
       -0.507064 -0.17611828 0.15756388 -0.2017511

policy_network.2.bias f4 [64]
000000 00 be 89 bd 04 cc 8d 3d b5 ed 66 3e 1e 8c 56 bd
       -0.06725693 0.069236785 0.22551616 -0.05237972
000010 06 31 8c bd eb f2 92 3d 34 0d db 3d 25 f4 bd 3d
       -0.06845288 0.07175239 0.10695878 0.092750825
000020 20 6c e3 bb bb 94 2f 3e 07 6d 23 3e fe bb 02 3e
       -0.0069403797 0.1714658 0.1595956 0.12767026
000030 7d c9 19 bd 72 62 a4 bc a8 8d 48 bc 36 70 41 bd
       -0.03754567 -0.020066474 -0.012240805 -0.047226153
000040 f3 1d bb 3d 12 1f 80 bb 42 87 3e 3e e4 c1 be bd
       0.09136572 -0.003909954 0.18606284 -0.093143255
000050 7e fc c2 3d f1 c4 56 3d 7a bd 2c bd a5 2a f9 3c
       0.09520815 0.05243391 -0.042172886 0.030415842
000060 4e e8 16 3e 95 66 21 3e 97 21 40 bd d7 71 ab 3d
       0.14737055 0.15761788 -0.046907034 0.083713226
000070 93 00 31 be 8e 62 aa 3b 1c da 10 3e f4 48 3c 3e
       -0.17285375 0.005199737 0.14145702 0.18387204
000080 4f 7c d4 bc 80 84 8e 3d 32 29 10 bd b5 9c f7 3d
       -0.025938181 0.06958866 -0.035195537 0.12090436
000090 59 b6 85 3d c4 24 87 3d 49 07 25 3d ec a5 28 3d
       0.06528921 0.06598809 0.04029015 0.04117386
0000a0 d5 44 57 3d cc 70 55 3c 7e e6 55 bd 55 4a fe 3c
       0.052555878 0.013027381 -0.052221768 0.031041304
0000b0 24 2a e9 bd 3b ec 3e bd 9e 54 fc bb 8f 15 8b 3d
       -0.11384991 -0.046612006 -0.007700517 0.06791221
0000c0 36 f0 c1 bd 9d 74 fe 3d 00 76 25 3e e2 98 da 3d
       -0.09469645 0.12424586 0.16158295 0.10673691
0000d0 46 cc 7c bd cf 3b 40 3d c7 a7 f0 3c db 85 05 bd
       -0.061718248 0.046932038 0.029376877 -0.032598358
0000e0 97 7d 26 3d 2c 74 e6 3d 5a 64 49 3d b1 73 87 3c
       0.040647116 0.11252627 0.04916797 0.016534658
0000f0 c4 0e 16 3e 93 64 42 3d bd 6c b0 bd 73 01 c3 3d
       0.1465407 0.047459196 -0.0861449 0.09521761

policy_network.4.weight f4 [4, 64]
000000 53 47 f3 bc c0 54 4f 3f 24 ce 17 be cd 91 a8 be
       -0.029697096 0.80988693 -0.1482473 -0.32923737
000010 a7 83 06 3f 71 55 e9 3d 83 f2 8b bd 24 48 7c 3c
       0.52544636 0.1139325 -0.06833365 0.015398059
000020 4a 83 99 be 4e 28 29 be a2 3a 07 bf b8 42 a7 3e
       -0.29982978 -0.16519281 -0.5282384 0.3266809
000030 0e 63 3b be 7e 4c 35 be 87 76 1b bf 16 1e bc 3e
       -0.18299505 -0.1770496 -0.60727733 0.36741704
000040 e4 69 eb be 97 ee 29 bf 71 c4 14 3f 6d 15 be bb
       -0.45979226 -0.66379684 0.58112246 -0.005800894
000050 3d 6f b9 be 2a 5e 58 3e 28 40 5a be 87 f5 c4 be
       -0.3621768 0.2112967 -0.21313536 -0.38468572
000060 b2 00 e7 3e 3a 78 2c be 80 6a 74 bf c1 1b 40 3e
       0.45117718 -0.16842738 -0.95475006 0.18760587
000070 8e 01 5b bf 60 f6 c7 3e df ff f8 be bb 7b 01 3f
       -0.8554925 0.39055157 -0.48632714 0.5057942
000080 9e 0b bc 3e 7f 1f 82 3d 93 35 bc 3e f6 78 58 3f
       0.36727613 0.06353664 0.36759624 0.8455957
000090 4d 14 2c be 67 9b e5 3d 57 9b a2 be f9 a9 5a be
       -0.16804619 0.11211281 -0.3175914 -0.21353902
0000a0 cf 05 d5 3d 0d 9d a6 be 16 e7 37 bf d9 6d 77 3e
       0.104014985 -0.32541695 -0.71836984 0.24162997
0000b0 70 29 b9 be c2 f8 e5 3d 5a 15 b2 3e f9 32 17 3e
       -0.36164427 0.112290874 0.34781915 0.14765538
0000c0 3c ee 64 3e d0 95 16 3f d9 31 80 3e 20 37 c4 be
       0.22356504 0.58822346 0.2503803 -0.38323307
0000d0 85 e0 18 3e 35 ac a9 3e 4d 30 dc be fb bc 80 3e
       0.14929397 0.33139196 -0.430056 0.2514418
0000e0 d8 32 74 3d b7 6f 15 bf 54 d3 3a 3f cc 1a f1 be
       0.0596188 -0.5837359 0.7297871 -0.47090757
0000f0 4f f9 9d 3c 22 8d 94 be fd 76 9f be 9d b4 39 be
       0.019283919 -0.29013926 -0.31145468 -0.18135305
000100 49 e6 1f bf 07 4b b9 3e e3 ab b0 3e db 8f 12 3e
       -0.6246076 0.36190054 0.3450614 0.14312689
000110 80 da 8f be 7c b1 9d 3e 55 ca f6 be 32 23 20 3e
       -0.2809639 0.30799472 -0.48201242 0.15638426
000120 5a af 40 be 00 86 00 3f 6b cc ba be 82 6a fa 3e
       -0.18816891 0.5020447 -0.36484084 0.48909384
000130 de 0a 01 3e 63 01 3c bf 57 51 a9 be 68 17 2a be
       0.12601802 -0.73439616 -0.3306987 -0.16610491
000140 9a 88 af 3e 69 3e 64 3a a1 a5 9e ba 10 25 cb be
       0.34283906 0.00087068096 -0.0012103805 -0.39676714
000150 d5 98 08 3f 16 04 ce bd bf c1 fe be 65 6d eb be
       0.53358203 -0.10059373 -0.49757192 -0.459819
000160 4b 5c 49 3e d3 c6 4e 3e 1e b3 16 bd fc a9 5a 3e
       0.19664113 0.20193033 -0.036791913 0.21353906
000170 6f 33 1c be da 44 d7 3e b6 96 31 bf 84 bc 12 bd
       -0.15253995 0.42044717 -0.6937059 -0.035824314
000180 51 08 df 3e 39 d4 2f be 39 e9 36 bf 59 c0 3f bd
       0.43561032 -0.171708 -0.7144962 -0.046814296
000190 9b d0 27 3d fe cb 40 be 65 63 00 3e 6f 10 13 3f
       0.040970426 -0.18827817 0.12537916 0.5744695
0001a0 4b dc ae 3e 26 7b 60 3e e4 09 8f bf ef 6c 15 3f
       0.34152445 0.21921977 -1.1174893 0.58369344
0001b0 70 88 ff 3d 12 1f a1 be 3d 8e cf 3b 2a 32 45 3d
       0.12477195 -0.31469017 0.006334095 0.048143543
0001c0 56 d5 12 3f e9 f1 24 bf be fe 74 be de 37 a9 be
       0.57356775 -0.64431626 -0.23925301 -0.33050436
0001d0 08 5e ec bd 4e 70 d9 3e 0e 57 58 be e9 b9 d4 3e
       -0.115413725 0.42468494 -0.21126959 0.41548088
0001e0 5f 24 e8 3e 39 fc 25 bf e6 9b bf be d5 a5 7d 3e
       0.4534025 -0.64837986 -0.3742363 0.24770291
0001f0 f4 2b 8b 3e aa c9 84 be f7 96 7d 3f 83 53 12 3f
       0.2718197 -0.25935107 0.9905848 0.5715868
000200 d2 00 1e 3f a8 47 83 3e 2b c0 e0 3e b8 9a 2c 3f
       0.6172 0.25640607 0.43896613 0.6742358
000210 d6 a9 5a bc 54 cb 9e be 66 e6 08 bf 65 f0 49 3f
       -0.013346156 -0.31014502 -0.5347656 0.7888244
000220 2f 33 f2 be 48 1e c1 3e ba bd 11 bd 82 b4 34 bf
       -0.47304675 0.37718415 -0.035581328 -0.70587933
000230 fc 41 d6 be d8 9f ae be c6 d1 93 3e a8 8a 23 3f
       -0.41847217 -0.34106326 0.28870982 0.6388345
000240 19 11 f9 3e 25 a1 b3 3e 8e ce 29 3e 76 8c ab 3e
       0.48645857 0.3508388 0.165827 0.335056
000250 6f 25 e1 3d e7 3f 01 bf 72 a6 af be 7e 1c 84 3d
       0.10993468 -0.5048813 -0.34306675 0.06450747
000260 31 6d 01 3e 8b 6d c5 be 8a 5f f9 3d f7 f6 29 3e
       0.1263931 -0.38560137 0.12176426 0.16598116
000270 1d a2 0b 3d a6 50 47 3e ce 0a f5 3d 40 04 01 3f
       0.03409015 0.19464359 0.119649515 0.5039711
000280 b7 c4 bd 3e 20 74 9c be 8f 8b bf bd 4e c5 e4 bd
       0.37064144 -0.30557346 -0.093527906 -0.111704454
000290 2c 02 a0 be ad 07 3a 3f 5a 62 74 3d 79 7c 35 be
       -0.31251657 0.7266796 0.059664108 -0.17723264
0002a0 12 b6 8d 3c c5 09 33 be bb 78 54 bf 93 6b f1 bd
       0.017298732 -0.17484196 -0.8299672 -0.11788096
0002b0 be 00 50 3f 4e b1 dd be 06 5e 9c 3d ef b4 50 bd
       0.8125113 -0.43299335 0.07635121 -0.0509538
0002c0 a2 cc a8 3e 2f 23 02 3e 9d 6d c6 be 1e e9 15 3f
       0.32968622 0.12708734 -0.38755503 0.58558834
0002d0 b2 5d a5 3e 36 6f b5 be 95 44 ef 3d 0a 8b f2 be
       0.32298046 -0.3543641 0.11683003 -0.47371703
0002e0 c3 e8 43 bf db a3 5c be 8d 5b 45 3b cd 71 e9 3e
       -0.7652704 -0.21546881 0.0030114383 0.45594636
0002f0 db 7b 2c be 71 f8 51 3e d0 5b 13 be 79 3d f2 bd
       -0.16844122 0.20504929 -0.14390492 -0.11828131
000300 84 6c 64 bd 75 62 41 3f 7c 5a c3 3e ec 7a 04 3e
       -0.05576755 0.7554086 0.38154972 0.12937516
000310 c6 61 24 bf 5f 6c 22 3f 4c b4 1f be 4c 4c f1 3d
       -0.6421169 0.6344661 -0.15596122 0.117821306
000320 6d 68 42 be 52 d1 25 bf 28 14 af bd 90 cd 61 be
       -0.18985148 -0.6477252 -0.085487664 -0.22051072
000330 60 f1 64 3e ea 49 0e 3e 16 b7 01 3e 16 11 26 3e
       0.22357702 0.13895383 0.12667498 0.16217455
000340 37 3f fd 3e 78 6c 08 bd fa 11 3a 3e de d0 95 3e
       0.49462292 -0.03330657 0.1817092 0.29260916
000350 61 0f 01 3f df 48 49 be 60 00 e2 3c d7 d9 b2 3e
       0.5041409 -0.19656704 0.02758807 0.34931824
000360 cd 05 85 bd 9a 3a 9b be 41 9f a9 bf 8a 26 20 bf
       -0.06495247 -0.30318147 -1.3251725 -0.62558806
000370 50 74 f8 3d 56 f5 67 3d 5c 90 c7 be f0 d5 c2 3d
       0.1213156 0.056630455 -0.38977325 0.095134616
000380 88 ed 12 bf 97 a7 60 3e a2 ba 65 3e 4a e3 1c bf
       -0.57393694 0.2193893 0.22434476 -0.61284316
000390 0b ee 65 3e 19 5a e0 3d 0c 68 4c 3f 99 46 95 bb
       0.22454087 0.10954685 0.7984626 -0.004555535
0003a0 60 23 c8 3e dc c2 ca bc 5c 63 8f 3e 32 b6 8a 3e
       0.3908949 -0.02475112 0.28005493 0.2709213
0003b0 79 59 af 3e 09 c4 04 bf 65 77 1f 3f bd 6d cd be
       0.3424795 -0.51861626 0.62291557 -0.40122786
0003c0 79 e3 65 3e 6b 32 40 bd 76 a6 34 3f 04 f8 90 be
       0.22450055 -0.046923082 0.705665 -0.2831422
0003d0 83 d5 c8 be 96 e4 3e be bd fc 3d be d8 75 aa 3f
       -0.39225397 -0.18641886 -0.18553443 1.3317213
0003e0 d8 d6 a2 3e 81 6a 03 3d 42 ee 75 3e 33 f4 01 bf
       0.31804538 0.032083992 0.2401667 -0.50763243
0003f0 3e 7e 4c bf f1 56 8e be 04 04 3f 3e 17 da 71 bc
       -0.7988013 -0.27800706 0.18653876 -0.014761469

policy_network.4.bias f4 [4]
000000 f0 f3 13 3e f1 50 7f bd a4 02 1b be c4 9b 14 be
       0.14448524 -0.06233305 -0.15137726 -0.14512545
