notebooks/Reacher-DDPG/policy_local.pth (torch, 54053 bytes, 6 tensors)

policy_network.0.weight f4 [128, 33]
00000000: e6e0 2abe 2e91 56bd 75ea 093d 46a8 26be
00000010: 7423 1a3d a7a4 0d3e 6f77 42be 21d1 113d
00000020: 5eb7 a1be 3e31 7abe 1420 12be 5002 cabd
00000030: c79b a33d 8302 72be db24 883e b288 07bd
00000040: 8dfb 33be cc73 c8bd 4036 9dbd 7952 cbbc
00000050: d099 193d 0203 11bd c38b 213e d357 6cbe
00000060: 25da 073d eada d33c fd0b 2bbe 32c6 eebd
00000070: af74 cb3e 0ce7 c83d edcb 863d 2f62 ecbd
00000080: faf7 933f 3c6a ffbd 72d3 943e 1a3b dcbd
00000090: 02d9 84be 46c7 243e 45be 08be 3250 51bd
000000a0: f1ef 9abd 18ad febd afe5 4abd 3c77 38be
000000b0: 59a7 373c 8545 9b3d 92a5 ad3b 9b2d 0e3e
000000c0: 9dab f7bd f27d aabc 7cc8 b13d d2e1 08bd
000000d0: d1e8 af3d 706f 013e 320f 1bbc 19c4 863d
000000e0: 6d8a cebe 403f e03c c17c 0a3e 264c 193d
000000f0: d9e2 983e 38ff 883e 49d9 10bd 2154 33be
00000100: c05e eebc 121c 7abf 9e47 013e 901d e2bd
00000110: 930c 843e a5a4 0a3d 8242 3c3e d4a9 273e
00000120: 1956 393e e841 873c ee5a 1abe 1b9c eebd
00000130: 4b0b 3e3d 3f8f 8e3d 846d 483d ba64 aabe
00000140: a1b9 343e 5077 863e 74cc c9bd 76eb 2fbe
00000150: 8ae2 81bc ca00 d13b 5844 073d ccb1 09be
00000160: 04b5 93be 9b9f dc3d 85a5 893e 4dd0 00be
00000170: 3cb5 143e e7f3 773e b323 993b f48d f8bc
00000180: 546a 7fbe 9984 823d 7caa c43d 195b 43be
00000190: 9b6e 35be 90b9 ebbd 45f6 14be 1bda 923d
000001a0: 62cc b9bd 4e07 0c3e 26ae 493e 261b 46bd
000001b0: 2c11 623d 1c08 a1bc 961c 66bd 6b7e 103e
000001c0: 52fa f03e 367c 7fbd 59d0 863e a507 6cbb
000001d0: d764 d43d f27f 263c 9cbb debc 668f 303d
000001e0: e8bf 523d b361 a5bd a4a5 1abe 822e d23a
000001f0: 50b1 f73d 5b6d 9ebe 62ce 52be c6cc 44bc
00000200: 04dc d63c ab01 2c3e a213 41bd 731f b03d
00000210: 0b6c 833e 38d7 29be 1975 46bd 1f85 28bc
00000220: af5c 963c c3e9 2b3e 2a8e 303e 532d 97bd
00000230: 09e9 83bd 932d c3bd 3a7b d93d 1d5b febd
00000240: e0e7 d5bd 5c9b 7e3d 95e1 833e ea24 aabc
00000250: e6cb b4bd 1c3f 2bbd 88b0 e33d a2ab 81bd
00000260: c1d9 8fbc 24d1 443d a463 b9bd 5cf8 3bbd
00000270: b5e7 59bc ec26 dbbd 3f0c 8cbd e5f4 79be
00000280: 3fec aebe cf1c f93d 08e4 bf3d d01a 86bd
00000290: 7f07 0e3f 7211 1cbe 916f e0bd a8d7 4fbe
000002a0: 16ea 26bc 75d5 293c 1169 a4bd b925 103e
000002b0: fb16 b23e 1503 84be adc2 87bd 968b 1a3d
000002c0: 501f d23d 00ab b9bd a63a e53d a5a1 7ebe
000002d0: 43af 7bbe 319e 03bd 80ec 78bd cec1 d4bc
000002e0: 51b3 93bd bf5e 5b3e e348 2fbe 95a0 f8bd
000002f0: 105f 8b3e b32c 35be 008f a0be ec12 5d3e
00000300: c69a d23d 61d0 543d c1c0 29be e58b b9bd
00000310: c875 08be eb5a a3bd e7fc 1c3b 43b7 1f3c
00000320: dc71 a4be 16d5 b4bd 41b7 973e 67eb 55bc
00000330: 6a84 383d ccd4 80be ce89 443e f709 4a3d
00000340: 84de 88be c3a7 28bd 0fe2 23be 319b c9bc
00000350: abed 703e c51f 35be f1e8 11bd 217f cbbd
00000360: 61c3 c93c 1709 513d d6bb d83d c14c 7f3e
00000370: a1bf 4e3e 22da 9dbe 1152 0e3e 176f 10be
00000380: 2b8c afbe 7f75 1bbe cf06 27be a3e5 2cbe
00000390: 7167 eb3d b178 cf3d f8dc e73e ae65 9bbd
000003a0: 3fdd 52bd 6bb2 05be d69b 4dbe 35f8 2bbe
000003b0: 53f5 16bd 8047 c83d f0ca 633d d7be 503e
000003c0: 2cb6 a33d ff2d f73c 0088 f0bb 6aa8 83be
000003d0: f102 c8bd 3fd5 9fbd 192c 75be ac77 0d3e
000003e0: b994 4cbc e42b 973e 500f 363e 7a08 093d
000003f0: d7bd aebe 93a3 063e 897e 393d f596 c73d
-0.16687354 -0.052384548 0.03367086 -0.16275129 0.037631467 0.13832341 -0.18990873 0.03559983
-0.3158521 -0.24432847 -0.1427005 -0.09863722 0.079886965 -0.2363377 0.26590618 -0.033089347
-0.17576428 -0.097877115 -0.07676363 -0.0248196 0.037500203 -0.03540326 0.15775971 -0.23080377
0.033167023 0.025861222 -0.16703792 -0.116588965 0.3973746 0.09809694 0.065818645 -0.115421645
1.1560051 -0.124714345 0.2906757 -0.1075346 -0.25946814 0.16091642 -0.13353832 -0.05110187
-0.075652964 -0.12435359 -0.04953545 -0.18014234 0.011209332 0.07581619 0.0052992785 0.13884585
-0.120932795 -0.020812009 0.086808175 -0.033418484 0.08589328 0.12640166 -0.009464072 0.065803714
-0.40339985 0.02737391 0.13524152 0.037426136 0.2986057 0.26757216 -0.03536347 -0.17512561
-0.029097915 -0.9769908 0.12624976 -0.11040795 0.25790843 0.033848424 0.18384746 0.16373378
0.1809925 0.016510919 -0.1507375 -0.116508685 0.04639749 0.06960916 0.048932567 -0.33279973
0.17648937 0.26262903 -0.098534495 -0.17179665 -0.015855093 0.006378268 0.033024162 -0.1344673
-0.2884904 0.1077263 0.26884094 -0.1257946 0.1452226 0.24214135 0.004673445 -0.030341126
-0.24942905 0.06372947 0.0960283 -0.1907772 -0.17717974 -0.115100026 -0.1454707 0.071705066
-0.09072186 0.13674662 0.19695339 -0.048365735 0.055192158 -0.019657187 -0.056179605 0.14110725
0.4706598 -0.062374316 0.26330832 -0.0036015299 0.10370796 0.0101623405 -0.027189068 0.043105505
0.051452547 -0.08075275 -0.1510225 0.0016035589 0.120943666 -0.30942807 -0.20586541 -0.012011712
0.026227959 0.16797511 -0.047137864 0.085997485 0.25668368 -0.16586006 -0.048451517 -0.010285645
0.018354742 0.16788392 0.17241731 -0.07381692 -0.06440932 -0.09530177 0.10619207 -0.12419722
-0.10444617 0.06215988 0.25758043 -0.020769555 -0.08827953 -0.041808233 0.11117655 -0.063315645
-0.017559888 0.048051015 -0.09052208 -0.04589115 -0.013299872 -0.10700783 -0.06838273 -0.24409826
-0.34164616 0.12163698 0.093696654 -0.06548083 0.5548019 -0.1524103 -0.109587796 -0.2029711
-0.010187646 0.0103658335 -0.08027852 0.1407689 0.34783158 -0.257836 -0.06628928 0.037730776
0.10259879 -0.09065819 0.11192827 -0.2486635 -0.24578576 -0.032133285 -0.06077242 -0.02597132
-0.07211936 0.21422862 -0.17117648 -0.121400036 0.27220964 -0.17692833 -0.313591 0.2158925
0.10283427 0.051956538 -0.16577436 -0.09059886 -0.1332618 -0.079763256 0.0023954452 0.009748283
-0.32118118 -0.088297054 0.29632 -0.013056613 0.045048155 -0.2516235 0.19193193 0.04932591
-0.26732266 -0.041175615 -0.16004203 -0.024610134 0.23528163 -0.176879 -0.03562254 -0.09936357
0.024629297 0.05103406 0.10582702 0.24931623 0.20190288 -0.30830485 0.13898493 -0.14104877
-0.34286627 -0.1518154 -0.16311191 -0.16884474 0.11494339 0.10130442 0.45285773 -0.07587753
-0.051480528 -0.13056342 -0.20078978 -0.16793902 -0.036855053 0.097792625 0.05561346 0.203853
0.07993731 0.0301733 -0.007340431 -0.25714427 -0.09766186 -0.07804345 -0.23942603 0.13815182
-0.01248663 0.29525673 0.17779279 0.03345535 -0.3412921 0.13148336 0.04528669 0.0974559

policy_network.0.bias f4 [128]
00000000: 1e5c 653e b0b7 d9bd 366b 3bbe e8ce 2bbd
00000010: dca5 873e 6ff7 a83d 7b76 b73d 4faf 5b3e
00000020: 6fc3 4bbd 9f2b 283e 1b14 a03d cbd2 01bd
00000030: 6f1f e9bd a492 423e d416 9fbd 6566 ccbd
00000040: 0dea 963e 7854 243e 8cc0 13bd 19cd 2fbe
00000050: 3cde f33d 0290 1f3e 92e7 893d 896e 9c3e
00000060: 0738 22bd ebad 9e3c b4e9 893e c357 11bd
00000070: b011 05bd 1747 383e 8350 023e 5f7f 1dbd
00000080: 0263 b6be 16aa 3c3e b8ed 10bb ae4e 043d
00000090: ff9e 353e 4cf7 153e c1ea 7fbd 6088 ea3d
000000a0: 8a37 303e c927 88be 8b86 1ebe 1568 7c3e
000000b0: d8f7 ee3d 898f 13bd 747d 9c3e 0233 93bd
000000c0: 3751 3a3e 6be0 803d 530d 0bbe 0713 253e
000000d0: 937d 073e 77b1 3a3e bddc 59bd 8c0f 063e
000000e0: 3e39 2a3e 13c8 c23d c469 813e 9d9c 8cbd
000000f0: ef7b 2f3e c72c 51bd 77cf 2abe 37c2 963e
00000100: e05b ee3c e305 44bc 2cc5 633e ef77 c2be
00000110: b4a7 253d fb0c d43d 2ddd ac3e cf3b 2ebe
00000120: 88b2 1c3d 4594 153e ee29 7f3e 5e2f 1e3d
00000130: 3c63 9d3e a41f 453e aec8 ac3e b5b1 debb
00000140: 9618 883e 9499 58bd 8129 89be 519e 07bd
00000150: 4dd6 8c3d 5918 293e 7b13 47bd f24d 6d3c
00000160: fd18 9b3e a2d0 913e 40cc 8a3e 7f72 2f3e
00000170: e71e f8bd 3545 75bc 88aa 21be bb08 d2bc
00000180: 0b1e eb3c 0fdd a23d a790 223e e37d b83d
00000190: 2618 8bbd 30a5 4fbb 4cc5 5abd 559e 883b
000001a0: 15c6 2d3e 93ea 333e ac03 42ba 0477 2bbd
000001b0: 430e 4c3e 12fa 913d e26b d03e f8f5 1f3e
000001c0: 23f4 a63e 6751 b0bd 978b fabd 329e aa3b
000001d0: caed 8d3e 41dd b43e 17f1 a83e 8b83 303e
000001e0: eca6 a53e 8894 d33c 60ce f93d 63ea 753e
000001f0: ed40 0d3d a65c 893c 84b8 913d e894 543e
0.22398421 -0.10630739 -0.18302616 -0.041945368 0.26493728 0.08250319 0.08958145 0.21453594
-0.049746927 0.1642289 0.07816335 -0.03169517 -0.113829486 0.19001251 -0.07768026 -0.09980468
0.29475442 0.16047847 -0.0360723 -0.17168082 0.11907622 0.15582278 0.06733622 0.30553082
-0.039604213 0.01937004 0.26936114 -0.035484087 -0.03248757 0.17995869 0.12726025 -0.03845155
-0.35622412 0.18424258 -0.0022114348 0.032301597 0.17736433 0.14645118 -0.06247974 0.11451793
0.17208686 -0.26592854 -0.15481012 0.24649079 0.11668366 -0.036025558 0.30564463 -0.07187463
0.18195044 0.06292804 -0.13579302 0.1612054 0.13231497 0.1823176 -0.053189028 0.13091868
0.16623399 0.095108174 0.25276005 -0.06865809 0.1713712 -0.051068094 -0.16680704 0.2944505
0.029096544 -0.011964294 0.22243184 -0.37982127 0.040443137 0.10354038 0.33762494 -0.17015003
0.0382562 0.14607342 0.24918339 0.03861939 0.30739772 0.19250351 0.33746856 -0.0067960867
0.26581258 -0.05288084 -0.26789477 -0.033109967 0.06876812 0.16513194 -0.048602562 0.014483916
0.30292502 0.28479487 0.27108955 0.1713352 -0.12115269 -0.0149701135 -0.15787709 -0.025638929
0.028700849 0.0795232 0.15875493 0.09008386 -0.06791715 -0.0031684153 -0.053410813 0.0041692653
0.16970094 0.17569952 -0.000740106 -0.04186155 0.19927315 0.07127775 0.40707308 0.15621173
0.32608137 -0.08609276 -0.12233656 0.0052068466 0.2772048 0.35325053 0.32996437 0.1723768
0.32353914 0.025827661 0.12197566 0.24015193 0.034485746 0.016767811 0.07115272 0.20759928

policy_network.2.weight f4 [64, 128]
00000000: a932 e1be b00d d4bd 7124 023d 69d4 d5bd
00000010: 8d5b 413d 21e3 81bc 7e6b 1dbe 3904 1f3e
00000020: 1604 5b3d 75fc 453e f13f 8dbe b637 cd3d
00000030: cd36 8a3d db9a a8be be1d 47bc ec40 163e
00000040: 2176 bdbe 6c33 c63e b641 663e 20e1 bd3d
00000050: 5cfd 673e d16b e23d 3c65 edbc bed7 dc3d
00000060: a517 5b3c a6b6 113e c192 513e 05a1 47bd
00000070: acc5 d7be 0c4d 653e 8308 40bd 9929 cabd
00000080: 2c19 923e 4ffe cdbc b4b6 35bd 358c c5bd
00000090: 3e06 35bd 4cb0 78bd 06df 3abe 11b9 303e
000000a0: 0497 153c 4d44 86be 4e80 f33d 1581 3ebe
000000b0: a05f 473d 7c38 b2bd 2083 9e3d 2b4f d5bc
000000c0: 1ded 083d 8c28 6f3e 53b7 82be 797e 303d
000000d0: 7b78 893e 1206 533e 0d4f 173d 6eab 103e
000000e0: 8b23 05bf 4604 bcbd 69e6 943e 4bfd 1b3e
000000f0: f547 9abd 05ea 55bd aa73 ca3d 406d 903d
00000100: a735 1fbe e8b8 803e f323 2cbe bc03 683e
00000110: db41 8c3d e00f a63d 8cf3 5bbd e4bf ecbc
00000120: 7517 a63e cea2 9f3d 25bf 513d ebbc ae3e
00000130: 96e8 cfbd 7ab8 90bd 1699 ffbd 52cc b63e
00000140: e90d 71be 6ade 59bd dce7 febd d254 bbbd
00000150: c685 e33c b969 99be 436c 913e a0ea b03c
00000160: 942d 6e3c 2c6d a23e f182 25be 7fec 473c
00000170: 799c 0f3e b7a0 15be 9e25 20be e0af 93bb
00000180: 88e7 2bbe 12df 873d 1438 603d 3fc5 ab3d
00000190: be25 703e 131d c63d 40d2 653e 627b 7a3d
000001a0: e991 5a3e b8b6 283e de2a 49be a0c9 bf3c
000001b0: 9e85 f5bd 5197 b3bd 4aeb 393c 26ae 0dbd
000001c0: ffea dabd 9c8a 423d 75a1 993e 2b63 153d
000001d0: f7c8 babd 9c09 393b 67f2 263d 99f2 cdbc
000001e0: 5381 8f3e 4bb6 4a3c 7e56 54be 852d c33e
000001f0: e830 7d3d d965 4cbd 7c9f 30be 9cd2 d3bc
00000200: 9628 2e3e 58d9 c83e 209b eabc 9ba7 943d
00000210: 23eb b63d 82cb e6bd 49e4 1abe e9e2 dabe
00000220: 1c7e 17be c3d5 3fbd ca46 00be 38e4 e2be
00000230: 4fa0 4bbe 4bcd 693d 64b7 2ebd 6e3b dcbc
00000240: b4ed b33d 3a89 e73e aefa b03d 4df6 c5be
00000250: 8f09 84bd abaa 18be 694e 713d fff3 84be
00000260: eead 63be 2160 b33c 1b98 9cbd fb34 42bd
00000270: 4067 30bd 3567 073c 8280 973d ad85 263e
00000280: cfa0 22be 3910 163e 86c0 a1bd 488d b3bd
00000290: 4ea8 56be f88c 5d3e f5a3 7a3d df0c c1bc
000002a0: c520 c33d 7845 b2bd 14dc a1be aea4 4c3e
000002b0: e957 4abf 4408 773e ae04 63be 9c53 a5be
000002c0: 38f3 693d 5f41 e5bd 11eb afbe 6769 993d
000002d0: 1e67 3a3e 1119 af3d 0fcb 44bd b4cb f23d
000002e0: 3566 1a3e d3ac a53c b58d 4e3e 1fb9 5a3e
000002f0: 11f0 8bbc 9049 95be aebb 863d 4628 c2bc
00000300: ab7e cd3e e1f1 36be aaf3 b6be 4bf4 79be
00000310: 7d2a 85bd b006 a73e e096 833e a245 293c
00000320: c89c ea3d 759c 123f 278d 16bb e39d f7bd
00000330: 9c5a a1be 76ac a5be 1027 543e d536 62bd
00000340: 74a1 4ebf bde5 91bc 9eeb 1ebf 41f2 25be
00000350: 4cc9 873d ed88 34be 4175 16bd 99b7 073d
00000360: fe6d 663d b191 2b3d 5cbe 123d f67d 24be
00000370: d760 b6be 6548 4e3d fb94 543d 5f6e dbbd
00000380: 29d1 02bf e221 1f3d c7d0 f53b 4bdc 963c
00000390: 5ff6 15be 6f92 c2be 7b83 40be d9f6 1ebe
000003a0: 5316 ae3d 1e17 c2bd 0877 bcbe 3251 06bd
000003b0: 6a9b 9d3d 7103 5b3e 2763 7f3e 021f 643e
000003c0: 06cb 6f3e aabe a3be 1d4c ca3c 5ef9 053e
000003d0: 55de 47bd 41a4 b53d 2ab0 0e3e f542 153e
000003e0: c93f 1dbe 9b63 e63d 5852 093e 5d46 cabd
000003f0: 2c52 02bf c4ed 31be 2af5 183e d29f 4dbe
-0.43983963 -0.10354173 0.031773034 -0.10440905 0.04720645 -0.015855374 -0.15373036 0.15528955
0.053470694 0.19334586 -0.27587846 0.10020392 0.06748734 -0.32930645 -0.012153087 0.14673203
-0.37004188 0.38711107 0.22486004 0.09271455 0.22655243 0.110557206 -0.028978936 0.10783337
0.0133723365 0.14229831 0.20466138 -0.048737545 -0.42143 0.22392672 -0.046883117 -0.098712154
0.2853483 -0.025145678 -0.044363692 -0.09645883 -0.044195406 -0.060715005 -0.18249139 0.17258097
0.009130243 -0.26223984 0.118897066 -0.18603928 0.04867518 -0.0870218 0.07739854 -0.026038727
0.033429254 0.23355311 -0.2553049 0.043089364 0.26849732 0.20607784 0.036940623 0.14127895
-0.5200736 -0.091805026 0.2908204 0.15233342 -0.07533256 -0.05222513 0.098853424 0.07052088
-0.1554781 0.25141072 -0.16810589 0.22657675 0.068484984 0.08108497 -0.05369906 -0.028900094
0.3243977 0.077947244 0.05120768 0.34128508 -0.10151784 -0.07066436 -0.12480371 0.3570276
-0.23540463 -0.053190626 -0.124465674 -0.091470376 0.02777375 -0.29963472 0.2840291 0.021596253
0.014537234 0.31723917 -0.16163231 0.012202381 0.14024533 -0.14612089 -0.1563935 -0.00450705
-0.16787541 0.06634344 0.05474098 0.08387231 0.23451898 0.09673514 0.22443485 0.061152823
0.21344723 0.16475952 -0.19645259 0.023411572 -0.11988376 -0.08769096 0.011347601 -0.03458991
-0.10689353 0.04749547 0.30005994 0.036471527 -0.09120362 0.0028234487 0.040758517 -0.025140094
0.28028354 0.012372564 -0.20736119 0.38120666 0.06181422 -0.049901817 -0.17248338 -0.025857262
0.1700767 0.3922832 -0.028638422 0.07258531 0.089315675 -0.11269285 -0.15126146 -0.42751244
-0.147942 -0.04683472 -0.12527004 -0.44314742 -0.19885372 0.05708055 -0.042655364 -0.026883807
0.08785573 0.45221883 0.08641563 -0.38664475 -0.06447136 -0.14908855 0.05891267 -0.25967404
-0.22234318 0.021896424 -0.07646199 -0.047413807 -0.043067217 0.008264353 0.07397558 0.16261931
-0.15881656 0.14654626 -0.07898049 -0.08767182 -0.2096264 0.21635807 0.061191518 -0.023565708
0.09527735 -0.08704656 -0.3161322 0.19984695 -0.7904039 0.24124247 -0.22169754 -0.3229035
0.057116717 -0.11194109 -0.3435903 0.07490807 0.18203399 0.08549703 -0.048045214 0.118552595
0.15078051 0.02022401 0.20171244 0.2135968 -0.017082246 -0.29157686 0.06578766 -0.023700844
0.40135702 -0.17865707 -0.35732776 -0.24409597 -0.065022446 0.3262229 0.25701046 0.010331543
0.11455685 0.57269984 -0.0022972317 -0.120906614 -0.31514442 -0.3235814 0.20718026 -0.055228073
-0.8071511 -0.017809743 -0.62078273 -0.16205694 0.06630191 -0.17630358 -0.036732916 0.033134077
0.05625724 0.04188699 0.035826072 -0.16063675 -0.35620758 0.05036201 0.05189989 -0.10714411
-0.51100403 0.038850673 0.007501695 0.01841559 -0.14644764 -0.38002345 -0.18800156 -0.15523852
0.08500352 -0.094770655 -0.36809564 -0.032792278 0.076956585 0.21388032 0.24940167 0.22277454
0.23417291 -0.31981403 0.024694497 0.13083407 -0.048796017 0.088692196 0.13934389 0.14576323
-0.15356363 0.11249467 0.13410318 -0.09876702 -0.50906634 -0.17375857 0.14937273 -0.20080498

policy_network.2.bias f4 [64]
00000000: 9103 87bd 9476 8d3d e0aa 643e eca2 61bd
00000010: 57f6 8ebd d3ea 943d a811 e23d 03c3 b63d
00000020: e957 cebb 3b02 2c3e 3bb1 253e 31d3 033e
00000030: 72d4 08bd 36cb 8ebc 23b1 32bc ee24 45bd
00000040: d33e ba3d e18b 16bb 1345 3c3e bad8 bfbd
00000050: 3bad c23d e0e7 5d3d b94c 2abd a660 013d
00000060: efe4 143e 46e5 223e e8f4 3dbd 95f7 a43d
00000070: e7d8 2ebe eaba 7d3b 11b4 103e db58 3a3e
00000080: 1bfe d9bc 889a 913d c1f8 11bd ed4a fa3d
00000090: 2363 8a3d 61e5 863d 420f 2a3d dd52 213d
000000a0: 7d6c 5b3d a773 573c 8277 46bd 78a0 ff3c
000000b0: 63bf e8bd 99fb 3bbd f1d2 03bc 718c 883d
000000c0: 08ac c4bd e3c2 003e 9f6a 283e 27c5 da3d
000000d0: c0ad 81bd af91 3c3d 8cb8 f93c dbc6 f2bc
000000e0: 890e 273d 76b1 ef3d 6299 3f3d e15b 8e3c
000000f0: 110e 153e 4926 463d 0f5c afbd 7153 c13d
-0.06592477 0.069073826 0.22330809 -0.055087015 -0.06980579 0.07271352 0.11038524 0.08923914
-0.006297101 0.16797726 0.1618089 0.12873532 -0.03340573 -0.017430883 -0.0109064905 -0.048130922
0.09094014 -0.0022971558 0.18385725 -0.09367509 0.09505697 0.05417621 -0.041577075 0.03158631
0.14540456 0.15907773 -0.04637614 0.08055035 -0.17074929 0.0038716146 0.1413119 0.18197958
-0.026610425 0.071095526 -0.03563762 0.12221322 0.0675719 0.06586719 0.041518457 0.039385665
0.05357026 0.013150132 -0.048453815 0.031204447 -0.11364629 -0.04589424 -0.008045898 0.06667412
-0.09603125 0.12574343 0.16446923 0.10682135 -0.06331968 0.046037372 0.030483507 -0.029635837
0.040785346 0.1170377 0.046777137 0.017377796 0.14556147 0.048376355 -0.08562481 0.09439743

policy_network.4.weight f4 [4, 64]
00000000: c4e9 debc 33c5 4f3f 2f10 18be b1d6 abbe
00000010: 6500 063f 6037 f83d 7aef 8bbd f7f4 823c
00000020: 03a0 98be 47c7 26be aee9 06bf 7cd6 a73e
00000030: 0f43 3ebe c31a 30be d83e 1bbf d046 bc3e
00000040: 5576 ecbe 3efa 2abf 99a9 143f 55ee f8bb
00000050: 068b b8be 2846 583e 603d 5ebe c111 c5be
00000060: 0f31 e63e d399 2dbe f9fe 74bf c668 403e
00000070: 9162 5cbf c751 c83e a3ae fbbe 3c9a 003f
00000080: b459 bc3e ed6b 7b3d fadd bb3e 7ce0 593f
00000090: cdf0 2bbe ffa7 e63d db44 a2be 5353 59be
000000a0: 57aa d63d ea40 a6be 5751 39bf d0dd 793e
000000b0: 659e b9be 298d e63d e9d3 b33e 0dae 163e
000000c0: eefa 643e b130 163f 1a7f 7f3e 5e69 c4be
000000d0: f358 193e 3846 a93e 8c15 ddbe 51a4 813e
000000e0: 97b6 6a3d 898c 15bf ecda 393f bdd8 f1be
000000f0: ab91 913c b797 96be 9d4f 9fbe f7bc 3abe
00000100: d1f2 21bf 659b b93e e915 af3e 0570 153e
00000110: ad52 8dbe 354a 9d3e 2dce f7be 6900 1d3e
00000120: 85ca 46be 41e4 fe3e 6653 bdbe 2ac9 f83e
00000130: d604 023e 5878 3ebf fcf7 a9be 8549 2dbe
00000140: b6e2 af3e 87b4 003b 3c03 04bb 0a10 ccbe
00000150: b4f4 073f 40f2 d4bd 33e4 fdbe 0baa edbe
00000160: 8bc2 483e bad5 4b3e 45a7 16bd 7b63 553e
00000170: ac03 1cbe 5319 d63e 5dad 31bf eec6 09bd
00000180: deef de3e d8c1 2fbe af9f 36bf 0222 3cbd
00000190: 2d0a 1c3d e8d7 3fbe 7060 023e e630 123f
000001a0: 70b3 ad3e ad9c 5c3e 2848 8fbf de11 143f
000001b0: 3eb9 023e 6cc4 a2be 0096 bb3b 591c 383d
000001c0: 9155 133f 7c29 26bf ccb9 75be acfd aabe
000001d0: fba8 f2bd 015a d73e 3f41 5abe 4231 d53e
000001e0: fa5c e93e e48d 26bf 5d20 bebe 6ae9 7b3e
000001f0: d00e 8a3e 55fe 84be cde7 7e3f d832 123f
00000200: a7a3 1d3f 54fc 813e 98a1 df3e 939e 2b3f
00000210: f46d 81bc 8da0 a0be eb5d 09bf f830 493f
00000220: ff46 f3be f0b5 c03e 941e 13bd 5a0e 35bf
00000230: 1845 d8be 1f5c aebe 816e 933e ea1f 233f
00000240: db9f f73e c80b b43e 8b8e 293e 92bc a93e
00000250: 6552 e13d f88e 01bf 5c2e b1be f20f 803d
00000260: 0055 fe3d 22a2 c6be 442d 023e 955b 263e
00000270: 6c12 113d a50e 463e 28f0 f83d 863f 003f
00000280: 4a32 bd3e 5374 9dbe 6fac bdbd 3998 ecbd
00000290: 9650 a1be 2083 3a3f 20b8 633d 61cf 37be
000002a0: ebbb 833c 0ddc 34be cb35 55bf 6751 eebd
000002b0: c1a2 513f a0cd ddbe b50d 993d df1c 58bd
000002c0: 4e04 a73e 120d 023e 4b02 c7be e37e 153f
000002d0: da39 a43e 2725 b6be c9ea ea3d 5c31 f3be
000002e0: b54c 44bf 600f 5dbe de41 44ba 0713 ea3e
000002f0: 617d 31be 1dae 4f3e 39ed 10be 72d4 f6bd
00000300: 9dfd 62bd 8993 403f 7e19 c43e dcdf 073e
00000310: 4cb6 24bf 5e16 223f 5cdd 1fbe 10fa f63d
00000320: 1edf 3fbe cae0 25bf 9ec1 afbd b5a8 61be
00000330: 6fbc 643e fc8f 143e 7179 023e e71a 283e
00000340: ffa3 fc3e 3af8 02bd 9b1e 3c3e 4d32 973e
00000350: 6da1 013f 6cc1 49be 30f5 e83c ef0f b33e
00000360: 5b41 83bd 98eb 9abe a6ec a8bf 9e21 20bf
00000370: 36ba 033e df3f 693d dc5f c5be 66e7 c63d
00000380: e62e 13bf caa8 603e 16fc 5f3e 1c23 1cbf
00000390: a367 643e 5a0f e33d 11f9 4b3f 4f47 e6bb
000003a0: bafc c83e cbcb c0bc 5502 923e 5d38 8c3e
000003b0: ef39 af3e f33b 05bf 4cc1 1f3f f6fc ccbe
000003c0: 6d2d 703e d482 34bd 4130 353f 908e 90be
000003d0: ae8b c8be e5c4 3ebe f9a4 3cbe 5b9c a93f
000003e0: bdc8 a43e fdab 033d c0ed 773e 4ce8 01bf
000003f0: 3f48 4dbf 30d6 8dbe 37b9 3a3e 7b23 81bc
-0.027211078 0.8116028 -0.14849924 -0.33562234 0.5234435 0.12119937 -0.06832786 0.015985949
-0.2980958 -0.16286956 -0.52700317 0.32780826 -0.18580268 -0.17197709 -0.60642767 0.36772776
-0.4618403 -0.6678809 0.58071285 -0.0075967708 -0.36043566 0.21120512 -0.217031 -0.38490108
0.44959304 -0.1695321 -0.9570156 0.18789968 -0.860879 0.3912489 -0.49156675 0.5023534
0.36787188 0.061382223 0.36692792 0.8510816 -0.16791077 0.112625115 -0.31693158 -0.21223192
0.104817085 -0.324714 -0.7238974 0.24401021 -0.36253658 0.11257393 0.35122612 0.14714833
0.22361347 0.5866805 0.24950829 -0.3836164 0.14975338 0.33061385 -0.431805 0.25320676
0.057303037 -0.58417565 0.72599673 -0.4723567 0.017769655 -0.29412624 -0.31115428 -0.18236147
-0.63261133 0.3625137 0.34196404 0.14593513 -0.2760214 0.30720678 -0.48399487 0.15332188
-0.19413193 0.4978352 -0.3697769 0.48590976 0.12697157 -0.7440238 -0.3319701 -0.16922577
0.34352654 0.0019638853 -0.002014353 -0.39855987 0.5310776 -0.10397768 -0.49588165 -0.46418795
0.19605462 0.19905749 -0.036780614 0.2083873 -0.15235776 0.41816196 -0.69405156 -0.03363698
0.4354238 -0.1716379 -0.7133741 -0.04593087 0.038095642 -0.18734705 0.127321 0.57105863
0.33925962 0.21544142 -1.1193895 0.57839763 0.12765977 -0.31790483 0.0057246685 0.04494891
0.5755244 -0.6490705 -0.23996657 -0.3339666 -0.11848637 0.42060855 -0.21313952 0.41639143
0.45578748 -0.6506026 -0.37134066 0.24600759 0.26964426 -0.2597529 0.9957245 0.5710883
0.6157784 0.25387824 0.43677974 0.6703884 -0.0157995 -0.3137249 -0.5365893 0.78590345
-0.47515103 0.37638807 -0.035917833 -0.70725024 -0.42240214 -0.34054658 0.28795245 0.6372057
0.48364148 0.35165238 0.16558282 0.3315168 0.11002044 -0.5060878 -0.34605682 0.06253041
0.12418556 -0.38795573 0.1271258 0.16245873 0.03541796 0.19341524 0.12155181 0.5009693
0.3695243 -0.3075281 -0.09261405 -0.11552472 -0.31506795 0.7285633 0.055595517 -0.17950203
0.016080817 -0.17662068 -0.83285207 -0.1163662 0.8188897 -0.43320942 0.074733175 -0.05276191
0.32620472 0.12700298 -0.38868937 0.5839674 0.32075387 -0.3557522 0.11470563 -0.47498596
-0.76679546 -0.21587896 -0.00074866216 0.45717642 -0.17332985 0.20281263 -0.14152993 -0.120522395
-0.055417646 0.7522512 0.383007 0.1326899 -0.6434066 0.6331538 -0.15611786 0.120594144
-0.18737456 -0.64796126 -0.085818514 -0.22037013 0.22337507 0.1450805 0.12741639 0.16416512
0.4934387 -0.03197501 0.1837105 0.29530564 0.5063694 -0.19702691 0.028437227 0.34973094
-0.0640895 -0.3025787 -1.3197219 -0.62551296 0.12864003 0.056945678 -0.38549697 0.097121045
-0.57493436 0.21939388 0.21873507 -0.6099107 0.2230516 0.110869125 0.7967692 -0.0070275436
0.39255315 -0.023534676 0.28517404 0.27386752 0.34223887 -0.520446 0.6240432 -0.40036744
0.23454829 -0.04407008 0.70776755 -0.28233767 -0.39169067 -0.18629797 -0.18422307 1.3250841
0.321844 0.032146443 0.24211788 -0.5074508 -0.80188364 -0.27702475 0.18234716 -0.015763989

policy_network.4.bias f4 [4]
00000000: 83d8 123e c398 84bd af97 1dbe 5fd7 13be
0.14340405 -0.064744495 -0.15389894 -0.14437626
