notebooks/Reacher-DDPG/qnetwork_local.pth (torch, 55397 bytes, 5 tensors)

value_function_network.0.weight f4 [128, 37]
-0.0031766647 -0.023369348 0.14553133 0.017471632 0.08761615 0.017944349 -0.09256719 0.029506762
-0.11577492 0.11726539 -0.069132864 -0.01949717 0.101543844 -0.123141505 0.115198515 -0.06787667
0.073207185 -0.020007614 0.011564467 -0.026278729 0.053263236 0.017705668 0.022085296 -0.11366913
0.04954138 0.014576419 -0.065265305 -0.08383228 0.16401634 0.09264278 0.035885148 -0.10900423
0.17827517 -0.0465945 -0.035723086 0.07427549 0.031000143 0.117951 0.1644605 -0.088277966
-0.029355075 0.035537086 0.07384828 0.0041042445 0.043012552 -0.2750802 0.006529626 0.013678138
0.25127 0.036667634 -0.024221523 -0.048755452 0.17416342 0.02131034 -0.03718127 -0.060817707
0.01993074 0.041295394 0.006141238 -0.028474497 0.08515842 -0.14191379 0.05028367 -0.0327811
0.065070204 -0.13118084 -0.11011325 -0.21420406 -0.059291366 0.3721625 0.02622306 0.088225394
0.097677134 0.041220866 0.013855741 0.13107175 -0.12323477 -0.019663693 0.12372325 -0.08321569
-0.1698523 0.04657518 -0.05291693 -0.094899796 -0.0670629 0.04955063 0.06889111 0.018157644
-0.0677426 0.051492896 -0.0123193925 -0.022183916 -0.046938617 -0.034394998 -0.048124854 -0.020054946
0.07770156 -0.23117664 -0.019057015 0.060057003 -0.064594455 0.061643038 -0.0056285043 0.030682117
-0.16235736 0.062394906 0.5255611 -0.07485251 -0.12536423 0.0412024 0.0002129556 -0.031110236
0.19873618 0.15382007 -0.042233698 -0.19967216 0.04295811 0.11346329 -0.035936803 0.06984365
-0.010989414 -0.004863325 -0.012091386 -0.007720941 0.047089953 -0.2193584 -0.26975626 -0.020839265
-0.0013749913 -0.003601125 -0.014071882 -0.02370386 0.027793579 0.0057244385 -0.015727103 -0.08810509
0.012281687 -0.037954587 0.17231321 0.13333991 -0.039946586 -0.10578413 0.12932117 -0.12537962
-0.010408207 -0.009347569 -0.016771516 0.01630801 -0.031831242 0.15689299 0.13857076 -0.048146546
0.07668434 0.053282946 -0.022630174 -0.04743363 0.033551324 -0.11639423 -0.06507987 0.006568172
0.07045955 0.07932741 0.0001694934 0.10914857 -0.018487062 -0.018002827 -0.05332218 -0.01582151
0.020866998 -0.005480063 0.082358904 -0.08246388 -0.009202026 0.102071464 -0.21099094 -0.15365125
0.049316343 0.16047068 0.25504452 -0.10249569 0.39618993 -0.092665315 -0.087273516 0.01975545
0.006184848 0.20814185 0.07267085 0.010638107 0.06048592 0.1714793 -0.04950626 0.16159566
0.05863971 0.093738265 -0.019119507 0.06715319 -0.024514964 0.00051762507 0.028269768 -0.0059527988
-0.014014978 0.047986235 0.032074902 0.027155025 0.0022870712 0.013185721 -0.038142458 -0.047866195
-0.051718526 0.07684295 -0.042056322 -0.12089051 -0.053592466 -0.05511412 0.12837166 0.09922608
0.14399634 1.2386312 0.030653294 -0.04193324 0.0031049645 -0.011480231 -0.027535051 -0.067852534
-0.104844205 -0.01644344 -0.05878533 -0.23732771 0.0933104 0.06469522 0.034425896 -0.0981982
0.028845914 0.03294498 -0.010094009 0.08007521 0.040834732 -0.1531963 0.068733655 -0.043268465
-0.020085873 0.07699911 -0.049568508 0.00023719786 0.012092166 0.090769194 0.01231073 0.08300384
0.07978629 -0.25248906 0.09118776 0.13538723 0.08788962 0.06426257 0.54856795 -0.040357463
00000000: 972f 50bb 1371 bfbc 2a06 153e ab20 8f3c
00000010: 1970 b33d 0700 933c de93 bdbd 2ab8 f13c
00000020: 671b edbd d628 f03d 8895 8dbd 87b8 9fbc
00000030: 38f6 cf3d 9d31 fcbd 33ed eb3d ec02 8bbd
00000040: a6ed 953d 02e7 a3bc e478 3d3c 7d46 d7bc
00000050: 8d2a 5a3d 7a0b 913c 39ec b43c 5ccb e8bd
00000060: e7eb 4a3d efd1 6e3c d1a9 85bd 42b0 abbd
00000070: e6f3 273e 7fbb bd3d 4efc 123d 9c3d dfbd
00000080: c48d 363e e0d9 3ebd 5f52 12bd c01d 983d
00000090: 03f4 fd3c 4b90 f13d 5568 283e 14cb b4bd
000000a0: 0e7a f0bc 568f 113d c43d 973d e67c 863b
000000b0: ee2d 303d 50d7 8cbe 79f6 d53b 451a 603c
000000c0: 76a6 803e cd30 163d 376c c6bc ccb3 47bd
000000d0: e557 323e 0693 ae3c 634b 18bd fd1b 79bd
000000e0: cb45 a33c 5c25 293d 703c c93b 5943 e9bc
000000f0: 8a67 ae3d d951 11be 40f6 4d3d 7a45 06bd
00000100: 8743 853d 4554 06be 0e83 e1bd 4f58 5bbe
00000110: 81db 72bd 158c be3e bed1 d63c 84af b43d
00000120: f30a c83d 36d7 283d 3103 633c ac37 063e
00000130: 8362 fcbd c115 a1bc 9e62 fd3d fd6c aabd
00000140: c3ed 2dbe 9ec5 3e3d 6cbf 58bd d35a c2bd
00000150: 4658 89bd 9af5 4a3d c816 8d3d 57bf 943c
00000160: a2bc 8abd 37ea 523d 47d7 49bc 0bbb b5bc
00000170: b542 40bd c5e1 0cbd 911e 45bd 454a a4bc
00000180: ff21 9f3d 92b9 6cbe 751d 9cbc 55fe 753d
00000190: 194a 84bd 697d 7c3d 516f b8bb 1059 fb3c
000001a0: 0241 26be cd91 7f3d 2c8b 063f 464c 99bd
000001b0: 7b5f 00be d9c3 283d d54c 5f39 e5da febc
000001c0: 7f81 4b3e 0283 1d3e 3efd 2cbd dc76 4cbe
000001d0: d8f4 2f3d 715f e83d 7832 13bd 300a 8f3d
000001e0: f10c 34bc 875c 9fbb f31a 46bc f3ff fcbb
000001f0: 65e1 403d 7d9f 60be 7e1d 8abe 1bb7 aabc
00000200: 0d39 b4ba da00 6cbb c08d 66bc 992e c2bc
00000210: 5caf e33c 1294 bb3b 20d6 80bc 7170 b4bd
00000220: 2139 493c 4576 1bbd e072 303e 428a 083e
00000230: 089f 23bd 5aa5 d8bd c56c 043e 8463 00be
00000240: 2f87 2abc 8c26 19bc 6b64 89bc 6098 853c
00000250: 7a61 02bd 8ea8 203e 7ee5 0d3e 5035 45bd
00000260: ae0c 9d3d 383f 5a3d ea62 b9bc c449 42bd
00000270: 1d6d 093d 1960 eebd 9848 85bd d239 d73b
00000280: 194d 903d 6976 a23d 0aba 3139 4989 df3d
00000290: 2e72 97bc aa7a 93bc 5c68 5abd 1d9c 81bc
000002a0: 44f1 aa3c 1a92 b3bb c9ab a83d d3e2 a8bd
000002b0: 18c4 16bc d80a d13d 020e 58be c156 1dbe
000002c0: efff 493d 6d52 243e 3295 823e 43e9 d1bd
000002d0: 68d9 ca3e 50c7 bdbd 75bc b2bd 2ed6 a13c
000002e0: 44aa ca3b 2323 553e 74d4 943d 744b 2e3c
000002f0: 16c0 773d 4598 2f3e 13c7 4abd 5579 253e
00000300: 3130 703d d9f9 bf3d 83a0 9cbc 9d87 893d
00000310: 9bd3 c8bc 3bb1 073a 0096 e73c b20f c3bb
00000320: 149f 65bc 378d 443d f960 033d 3774 de3c
00000330: b0e2 153b ec08 583c 443b 1cbd 580f 44bd
00000340: ced6 53bd d65f 9d3d 4043 2cbd 7295 f7bd
00000350: c683 5bbd 58bf 61bd dc73 033e 0b37 cb3d
00000360: c773 133e 788b 9e3f 9e1c fb3c 30c2 2bbd
00000370: a97c 4b3b 9417 3cbc 3091 e1bc 45f6 8abd
00000380: 8fb8 d6bd 65b4 86bc e3c8 70bd 0906 73be
00000390: 8619 bf3d ed7e 843d 2b02 0d3d 231c c9bd
000003a0: 444e ec3c 51f1 063d 5861 25bc 79fe a33d
000003b0: 5242 273d 7edf 1cbe 3bc4 8c3d 463a 31bd
000003c0: 218b a4bc b6b1 9d3d 5908 4bbd 51b8 7839
000003d0: 381e 463c 33e5 b93d f2b2 493c ebfd a93d
000003e0: ff66 a33d 3f46 81be a6c0 ba3d f3a2 0a3e
000003f0: 79ff b33d 189c 833d f36e 0c3f de4d 25bd

value_function_network.0.bias f4 [128]
0.24859191 -0.2567267 -0.074184105 -0.22235186 0.24731296 -0.006525913 0.058607608 0.00012406181
-0.12134452 0.0017901651 -0.027483497 0.0060801995 -0.11585337 0.11166819 0.15268315 -0.1869153
0.19471347 0.01124744 -0.038188968 -0.1293285 -0.09273595 -0.059647374 0.11269401 -0.063950546
-0.04077747 -0.068299554 -0.09519853 0.015135941 -0.03654465 -0.036158405 0.13538182 0.115690015
-0.11941894 -0.22692348 0.12253626 0.36810893 -0.058975544 -0.12212681 -0.05456663 -0.04580386
0.028149674 0.003859169 0.10292055 0.16672654 -0.13471064 0.17695756 -0.119448215 -0.03518837
0.08064752 0.22201982 -0.13135612 -0.08477687 -0.13124292 -0.024868378 0.07596153 -0.21844101
-0.13887434 0.074917726 0.24204893 0.29095244 0.016949892 0.08724809 0.056146234 0.032461043
-0.24606816 0.005300679 0.011361417 -0.13671325 0.025532654 0.042405177 -0.14711165 -0.2789564
-0.057907727 -0.15792753 -0.07488128 0.1013322 -0.06856174 0.01680128 -0.079507545 -0.014767728
-0.116120055 -0.33836016 0.071549125 -0.24506 0.15046674 0.06316387 0.11227079 0.046575267
0.25552553 0.23824535 -0.15889636 -0.07941304 0.06738651 -0.099839985 -0.13648683 -0.09710953
0.101410374 -0.064991385 0.08469495 -0.052817374 -0.0950335 -0.09217852 0.008663682 -0.013077325
0.0021713148 0.017530356 0.027513416 0.010379833 0.09385704 0.2150643 -0.26010904 0.07556161
-0.0398021 0.11687245 -0.08559144 0.045235485 0.17570044 0.08768865 0.027615834 0.14204147
-0.15354082 -0.14255054 -0.0475138 0.06584439 -0.100668326 0.09776043 -0.06766002 0.04321271
00000000: e18e 7e3e af71 83be d6ed 97bd 35b0 63be
00000010: 9c3f 7d3e 53d7 d5bb 880e 703d 9716 0239
00000020: 7a83 f8bd f9a3 ea3a 1225 e1bc 693c c73b
00000030: 8844 edbd 4bb2 e43d f958 1c3e b966 3fbe
00000040: f862 473e 2f47 383c 096c 1cbd b16e 04be
00000050: 59ec bdbd ce50 74bd 1ecc e63d 81f8 82bd
00000060: 4706 27bd a3e0 8bbd 72f7 c2bd bdfc 773c
00000070: d8af 15bd d61a 14bd 88a1 0a3e e3ee ec3d
00000080: eb91 f4bd a15e 68be 4af4 fa3d c678 bc3e
00000090: 5790 71bd 9f1d fabd 4281 5fbd d49c 3bbd
000000a0: 259a e63c 1dea 7c3b 02c8 d23d 5dba 2a3e
000000b0: 96f1 09be 5d34 353e 44a1 f4bd ae21 10bd
000000c0: 872a a53d 2a59 633e 3882 06be 7f9f adbd
000000d0: 8b64 06be c5b8 cbbc b891 9b3d 00af 5fbe
000000e0: 1335 0ebe 776e 993d addb 773e b8f7 943e
000000f0: 80da 8a3c 20af b23d 98f9 653d dff5 043d
00000100: 4bf9 7bbe 51b1 ad3b 3d25 3a3c 8ffe 0bbe
00000110: db29 d13c 0db1 2d3d 70a4 16be 60d3 8ebe
00000120: a730 6dbd c1b7 21be 5b5b 99bd 4287 cf3d
00000130: 196a 8cbd d7a2 893c dad4 a2bd 57f4 71bc
00000140: 5ad0 edbd 8b3d adbe 5988 923d 02f1 7abe
00000150: f413 1a3e 0f5c 813d 3aee e53d b5c5 3e3d
00000160: 3ed4 823e 97f6 733e bab5 22be 4ea3 a2bd
00000170: f001 8a3d e878 ccbd 34c3 0bbe 5ce1 c6bd
00000180: 3eb0 cf3d 341a 85bd 8c74 ad3d 0857 58bd
00000190: eca0 c2bd 18c8 bcbd 1ef2 0d3c 4742 56bc
000001a0: 9e4c 0e3b d29b 8f3c d163 e13c 2d10 2a3c
000001b0: 1f38 c03d d139 5c3e 032d 85be 0cc0 9a3d
000001c0: 8707 23bd d35a ef3d 914a afbd d848 393d
000001d0: d1ea 333e 1b96 b33d 9a3a e23c 5273 113e
000001e0: ce39 1dbe c5f8 11be d59d 42bd 6cd9 863d
000001f0: 322b cebd 9f36 c83d 5691 8abd d0ff 303d

value_function_network.2.weight f4 [64, 128]
0.036735218 -0.05404325 -0.1392176 -0.033492267 -0.01551272 0.13499343 0.07849562 0.0624383
0.0021196124 -0.02208203 -0.023930624 -0.07962202 -0.054328628 -0.0389326 -0.052289266 -0.012425536
-0.0055874093 0.097133875 0.046835054 0.10500718 -0.07405215 -0.009341673 0.12068415 0.005891344
-0.0641339 -0.09434502 -0.20615909 0.038386375 -0.11443862 -0.025982758 0.011026931 0.07083988
0.09981268 0.08288699 -0.028767422 0.045930594 0.050520536 -0.008484373 0.2244384 -0.015294265
0.057880342 -0.03766915 0.1143389 0.015956877 0.07959601 -0.016556533 0.04092091 0.14134581
0.05924761 -0.048428174 0.057641033 -0.03099067 -0.13844134 -0.0721918 -0.044919804 0.08286008
-0.15553474 -0.056808803 0.008734641 0.09545246 -0.0350102 0.00033426637 -0.010914956 0.04179403
-0.115124345 0.023476554 0.009991153 -0.10937958 0.048827417 0.05229918 0.08494356 -0.11003332
0.08729373 0.044016022 -0.06331025 -0.167006 0.03263563 -0.040583894 0.020408781 -0.04572965
0.16044019 -0.061020676 -0.16984802 0.045039847 -0.0005917858 0.023917645 0.022461636 -0.0138258515
0.103301205 0.029780293 -0.012402125 0.018061252 -0.15060374 0.10008523 0.10493615 0.11005355
-0.008506494 -0.24189672 0.007984464 -0.15244894 -0.23048668 -0.12995782 -0.03340997 -0.09336161
-0.09034664 -0.051001523 -0.08068373 0.08269201 0.017168108 0.08645394 0.053361136 0.039609518
-0.038750235 -0.1673069 0.031490173 -0.034065366 0.04866036 -0.06856171 0.1226608 -0.049858693
-0.05317981 -0.25767767 -0.05110949 -0.015877418 -0.03362849 -0.25922003 -0.11620622 -0.14318499
0.07951397 0.12482849 0.07602701 -0.09824938 0.10732349 0.17868067 0.023463132 -0.030322367
-0.0050061033 0.017727723 0.037792318 -0.04255454 -0.053373262 0.094461605 0.004864476 0.063980944
0.007578531 0.011840615 0.087550394 -0.010511611 0.055376764 -0.13594985 -0.025114905 -0.014170277
-0.1397864 0.056752317 -0.002538457 -0.009628067 0.024497787 0.014187801 0.005913562 0.10825739
0.09278521 -0.08280115 -0.011536604 -0.06449782 0.05357048 0.12755036 0.06568255 0.17523503
0.09018689 -0.01462487 -0.036498226 -0.08413853 0.018214103 0.012747522 -0.071074955 0.11182117
-0.0792467 0.012050994 0.048290454 0.046563815 0.13138653 -0.021409439 0.13431235 -0.10105912
0.03441247 0.060981497 0.028576607 0.12538661 0.12949541 0.0061613154 -0.08156118 0.010736349
0.07968159 0.048756227 -0.023618743 -0.09238002 0.08881431 -0.06824137 0.096675396 0.03526343
-0.025046743 0.14711387 -0.029194128 -0.06304616 0.12327537 0.04144146 0.038274437 0.001062963
-0.044368397 -0.004331498 0.057987217 -0.05570482 0.012158624 -0.022385413 0.14276412 0.040412452
0.12920254 0.07921502 0.016214132 -0.00044813985 -0.082958475 0.06785384 -0.010138679 0.05232779
-0.012263437 -0.10236397 0.0015184327 -0.12125643 0.14515081 -0.13994443 -0.06612342 -0.044430755
-0.11413625 -0.015730983 -0.047097992 -0.08439104 0.060807053 -0.020646282 0.03441419 -0.07094007
-0.021973453 0.08222326 0.02653859 0.088988885 -0.03348764 -0.012181739 0.03399968 -0.09136198
0.12372559 -0.37216002 -0.022454018 0.12131455 0.09028018 -0.27827045 -0.21128963 -0.15809274
00000000: ab77 163d 745c 5dbd 0f8f 0ebe 302f 09bd
00000010: 1029 7ebc b83b 0a3e 50c2 a03d 4ebf 7f3d
00000020: 32e9 0a3b 60e5 b4bc 280a c4bc df10 a3bd
00000030: b287 5ebd ca77 1fbd 452d 56bd 7a94 4bbc
00000040: 9616 b7bb 20ee c63d 1dd6 3f3d 010e d73d
00000050: a7a8 97bd d10d 19bc 4029 f73d 2d0c c13b
00000060: a258 83bd f637 c1bd 5e1b 53be 083b 1d3d
00000070: cc5e eabd cbd9 d4bc 4daa 343c 8014 913d
00000080: 976a cc3d a7c0 a93d a8a9 ebbc b821 3c3d
00000090: 9fee 4e3d 0a02 0bbc 2ed3 653e cc94 7abc
000000a0: f013 6d3d f74a 1abd 832a ea3d ffb7 823c
000000b0: 3c03 a33d 91a1 87bc af9c 273d f5bc 103e
000000c0: 9fad 723d 9f5c 46bd 0119 6c3d 25e0 fdbc
000000d0: 91c3 0dbe 4bd9 93bd d4fd 37bd 8cb2 a93d
000000e0: 8044 1fbe 59b0 68bd bd1b 0f3c 947c c33d
000000f0: db66 0fbd 7940 af39 a5d4 32bc 3830 2b3d
00000100: 50c6 ebbd e751 c03c efb1 233c 6702 e0bd
00000110: 42ff 473d aa37 563d e4f6 ad3d 2659 e1bd
00000120: 0ec7 b23d 254a 343d cea8 81bd 9f03 2bbe
00000130: f0ac 053d 4c3b 26bd 5130 a73c 034f 3bbd
00000140: 6f4a 243e d1f0 79bd a4ec 2dbe b47b 383d
00000150: 1322 1bba f0ee c33c 7701 b83c d385 62bc
00000160: 958f d33d cdf5 f33c 4832 4bbc 31f5 933c
00000170: de37 1abe 7cf9 cc3d c4e8 d63d c163 e13d
00000180: d25e 0bbc c6b3 77be 45d1 023c 931b 1cbe
00000190: b304 6cbe aa13 05be e5d8 08bd 5f34 bfbd
000001a0: a907 b9bd f9e6 50bd 833d a5bd 6e5a a93d
000001b0: 22a4 8c3c c30e b13d 3591 5a3d 973d 223d
000001c0: 91b8 1ebd 8052 2bbe d7fb 003d 2088 0bbd
000001d0: 1650 473d 156a 8cbd 9635 fb3d a138 4cbd
000001e0: 13d3 59bd 54ee 83be 2f58 51bd 5c11 82bc
000001f0: 07be 09bd 7db8 84be 87fd edbd 169f 12be
00000200: 38d8 a23d 14a6 ff3d 0db4 9b3d f936 c9bd
00000210: 6bcc db3d 11f8 363e c135 c03c 9d66 f8bc
00000220: 3d0a a4bb bb39 913c 1ecc 1a3d ab4d 2ebd
00000230: ec9d 5abd 1675 c13d 2f66 9f3b 7108 833d
00000240: 5355 f83b 24ff 413c 9f4d b33d e438 2cbc
00000250: bfd2 623d 7036 0bbe c6bd cdbc 732a 68bc
00000260: 2b24 0fbe 1e75 683d 3e5c 26bb 0abf 1dbc
00000270: 95af c83c f373 683c 8ec6 c13b 0db6 dd3d
00000280: 2c06 be3d a693 a9bd 0604 3dbc 6f17 84bd
00000290: b86c 5b3d 909c 023e 9384 863d d070 333e
000002a0: e7b3 b83d 279d 6fbc 2a7f 15bd d250 acbd
000002b0: be35 953c fcda 503c bf8f 91bd 7f02 e53d
000002c0: 184c a2bd 8871 453c 36cc 453d b3b9 3e3d
000002d0: 318a 063e d962 afbc 2d89 093e 15f8 cebd
000002e0: 17f4 0c3d bcc7 793d 7d19 ea3c 5965 003e
000002f0: 729a 043e dce4 c93b 8c09 a7bd 83e7 2f3c
00000300: 1a30 a33d 9cb4 473d 187c c1bc bc31 bdbd
00000310: 47e4 b53d 22c2 8bbd c0fd c53d 6370 103d
00000320: d42e cdbc 05a5 163e 8628 efbc 581e 81bd
00000330: cc77 fc3d 85be 293d a8c5 1c3d 1f53 8b3a
00000340: a3bb 35bd 3def 8dbb 0184 6d3d bd2a 64bd
00000350: f734 473c 9d61 b7bc c230 123e 8787 253d
00000360: ac4d 043e 7c3b a23d 80d3 843c 50f4 eab9
00000370: 22e6 a9bd f4f6 8a3d b41c 26bc aa55 563d
00000380: 95ec 48bc 33a4 d1bd 2606 c73a 4b55 f8bd
00000390: 6aa2 143e 984d 0fbe b76b 87bd 06fd 35bd
000003a0: 44c0 e9bd 43de 80bc d3e9 40bd 36d5 acbd
000003b0: d110 793d 6422 a9bc e5f5 0c3d 0749 91bd
000003c0: ac01 b4bc ab64 a83d 7567 d93c ce3f b63d
000003d0: 562a 09bd eb95 47bc 4043 0b3d fd1b bbbd
000003e0: d863 fd3d c28b bebe 7df1 b7bc c373 f83d
000003f0: d1e4 b83d 7779 8ebe 4f5c 58be 10e3 21be

value_function_network.2.bias f4 [64]
-0.113475144 0.23480491 0.17773637 0.16665216 -0.03581145 -0.13739198 0.15511978 0.28545508
-0.16030951 0.11918927 -0.003958573 0.010297732 0.18720853 0.022668336 -0.1006678 0.16979861
0.14654258 -0.2831921 -0.038630523 0.13014072 -0.16213804 -0.17371698 0.04714578 0.19442199
-0.06535022 -0.078927 0.1528364 -0.08766627 -0.16407137 -0.18170995 0.17525838 -0.15084673
-0.13708378 0.21111675 0.33626136 0.24536166 0.04311708 0.2720284 0.31861943 0.11627531
-0.053820763 -0.20014174 0.2127358 -0.21428141 0.00283765 -0.12583391 -0.20350164 0.28294823
0.29484913 0.06897023 -0.03244431 0.078139775 -0.1481472 0.06255758 0.18410222 0.17231236
0.11027446 -0.17024475 -0.046268813 0.19402006 -0.23389831 0.12169717 -0.06231886 -0.09259459
00000000: a865 e8bd b370 703e 8600 363e dda6 2a3e
00000010: 07af 12bd 7cb0 0cbe b8d7 1e3e 2b27 923e
00000020: 2d28 24be 8119 f43d ebb6 81bb d2b7 283c
00000030: 98b3 3f3e f2b2 b93c eb2a cebd b0df 2d3e
00000040: 420f 163e 8efe 90be 0a3b 1ebd 9c43 053e
00000050: 8407 26be dde2 31be ef1b 413d 8f16 473e
00000060: 56d6 85bd 7ba4 a1bd 2581 1c3e 608a b3bd
00000070: 5302 28be 2c12 3abe ef76 333e 9177 1abe
00000080: b15f 0cbe fd2e 583e 732a ac3e 1640 7b3e
00000090: 899b 303d 4e47 8b3e 1622 a33e c021 ee3d
000000a0: 2973 5cbd f5f1 4cbe 6ad7 593e 966c 5bbe
000000b0: def7 393b 9bda 00be bc62 50be 97de 903e
000000c0: 77f6 963e 4440 8d3d 53e4 04bd bf07 a03d
000000d0: e6b3 17be 301e 803d 4b85 3c3e a772 303e
000000e0: 93d7 e13d a454 2ebe 5e84 3dbd 32ad 463e
000000f0: 0a83 6fbe 5e3c f93d 1042 7fbd 3ba2 bdbd

value_function_network.4.weight f4 [1, 64]
-0.16032028 0.125683 0.15543231 0.14046766 -0.19435482 -0.23687734 0.17995578 0.0879574
-0.18412848 0.11348818 -0.20619573 -0.15784359 0.28307423 -0.24840638 -0.19080198 0.3577625
0.08423141 -0.22137274 -0.22541715 0.08803202 -0.11748075 -0.2439332 0.21092585 0.12684433
-0.18927877 -0.17482454 0.12096772 -0.24991658 -0.33470285 -0.07725611 0.071773395 -0.17034695
-0.21008286 0.09261598 0.107709885 0.21381645 -0.09965477 0.13374345 0.12127397 0.09622052
-0.18852343 -0.1040092 0.15316631 -0.2826657 0.30601192 -0.2601321 -0.16431493 0.1879363
0.12355534 0.18719727 -0.26819336 0.19876362 -0.2814389 0.16546735 0.16396332 0.14229208
0.13128139 -0.12038836 -0.21586007 0.17929906 -0.21001758 0.12779783 -0.25410137 -0.20423697
00000000: 002b 24be 0bb3 003e a629 1f3e c1d6 0f3e
00000010: f304 47be f98f 72be 5446 383e 0223 b43d
00000020: 2d8c 3cbe 7e6c e83d f924 53be c0a1 21be
00000030: 1bef 903e 3e5e 7ebe 9861 43be a52c b73e
00000040: 8481 ac3d 89af 62be c1d3 66be 224a b43d
00000050: bf99 f0bd a0c9 79be f2fc 573e 7be3 013e
00000060: 4bd2 41be 3405 33be edbd f73d 22ea 7fbe
00000070: 2c5e abbe 7438 9ebd eefd 923d 6e6f 2ebe
00000080: f61f 57be 72ad bd3d 0097 dc3d b3f2 5a3e
00000090: cd17 ccbd 0bf4 083e 7d5e f83d 440f c53d
000000a0: 490c 41be c702 d5bd a1d7 1c3e 8fb9 90be
000000b0: 98ad 9c3e 0930 85be 2c42 28be 6072 403e
000000c0: 950a fd3d a4b0 3f3e a450 89be b188 4b3e
000000d0: c218 90be 4670 293e 00e6 273e 04b5 113e
000000e0: a16e 063e 2c8e f6bd 6c0a 5dbe 2c9a 373e
000000f0: d90e 57be 6fdd 023e 9319 82be 7f23 51be
