notebooks/Reacher-DDPG/qnetwork_target.pth (torch, 55397 bytes, 5 tensors)

value_function_network.0.weight f4 [128, 37]
-0.0030107629 -0.02412797 0.1464648 0.01801556 0.08703104 0.01795375 -0.09153183 0.029669119
-0.11566612 0.11835764 -0.06837765 -0.020534355 0.10134238 -0.12285914 0.11439226 -0.066763476
0.07260488 -0.01990128 0.012023594 -0.025874542 0.05310314 0.019657347 0.022632206 -0.11330852
0.048749525 0.015832977 -0.065105364 -0.08414021 0.16463435 0.09264278 0.036192354 -0.10900423
0.17767484 -0.04575943 -0.034135737 0.07558808 0.029507581 0.11954858 0.16616108 -0.0863556
-0.031908855 0.03744768 0.07106983 0.0050549805 0.045105487 -0.2749285 0.009951223 0.016407482
0.25155544 0.036128297 -0.023471024 -0.046937093 0.17552009 0.019531306 -0.03640519 -0.060796022
0.017853852 0.04112551 0.0054802103 -0.025434354 0.08271885 -0.14171787 0.049982645 -0.03213766
0.06714868 -0.12995963 -0.11011325 -0.21628447 -0.059291366 0.37039098 0.02513637 0.0880498
0.09863697 0.04075917 0.013043533 0.1312929 -0.123239204 -0.01947734 0.12319399 -0.08069398
-0.17005299 0.048265234 -0.054161947 -0.098293014 -0.070353575 0.050407264 0.06950129 0.018405436
-0.06789905 0.05147386 -0.010846322 -0.02445403 -0.049440358 -0.031977486 -0.04640409 -0.019139856
0.0762026 -0.23121253 -0.018524252 0.062227666 -0.06369555 0.061508026 -0.006205512 0.030682117
-0.1622239 0.062394906 0.525861 -0.07669959 -0.12480925 0.03852264 -0.003242754 -0.03088456
0.19700557 0.15399635 -0.04123182 -0.19949299 0.04334609 0.114377655 -0.037410147 0.069744594
-0.012226766 -0.0050759534 -0.014607387 -0.005440384 0.04557139 -0.22146292 -0.26874188 -0.017593192
-0.004825803 -0.0034414968 -0.013704336 -0.024469752 0.027817473 0.0052142665 -0.014168027 -0.086882904
0.014038064 -0.038228355 0.17113662 0.13345873 -0.039946586 -0.10460738 0.1293214 -0.12482194
-0.010064989 -0.008620176 -0.013125974 0.016216721 -0.031161418 0.15727869 0.13906945 -0.0483671
0.07650969 0.052772824 -0.021672241 -0.04696942 0.034578595 -0.11668784 -0.064920194 0.004520598
0.069479525 0.07935807 0.0006679929 0.109368466 -0.020098384 -0.020229748 -0.05303805 -0.014781209
0.021118369 -0.0048325285 0.08310324 -0.082046665 -0.009291982 0.10271577 -0.2110221 -0.1530507
0.04892511 0.16047068 0.25444525 -0.10249569 0.39773974 -0.091552004 -0.08709193 0.019514756
0.008140721 0.2054037 0.071873926 0.010734412 0.06089047 0.16904776 -0.044834204 0.16075164
0.060319483 0.09187408 -0.019910991 0.06618497 -0.024440238 0.0012549442 0.027883852 -0.005686429
-0.015415299 0.046180423 0.03222948 0.024107352 0.0030199587 0.011070608 -0.03563375 -0.047487322
-0.05319507 0.07677284 -0.041907195 -0.120289996 -0.054713394 -0.055721343 0.12837166 0.1003477
0.14399634 1.2397814 0.03210126 -0.0443806 0.0020193225 -0.014125596 -0.02718401 -0.067982905
-0.104656644 -0.016326072 -0.058464758 -0.23718575 0.09347337 0.06260294 0.035546407 -0.09767771
0.02911944 0.03376435 -0.00918458 0.080320105 0.040632337 -0.1522553 0.06989787 -0.043038428
-0.017658275 0.07587745 -0.047849994 -0.0036589256 0.01337802 0.08952295 0.01284298 0.084880464
0.080373056 -0.2529867 0.09147963 0.13538723 0.08838574 0.06426257 0.5483852 -0.038705945
00000000: 3850 45bb 05a8 c5bc defa 153e 5e95 933c
00000010: 543d b23d be13 933c 0a75 bbbd a70c f33c
00000020: 5ce2 ecbd 7e65 f23d 9509 8cbd aa37 a8bc
00000030: 988c cf3d 939d fbbd 7d46 ea3d 4abb 88bd
00000040: deb1 943d 0208 a3bc 9cfe 443c d9f6 d3bc
00000050: ae82 593d 7208 a13c 2d67 b93c 4c0e e8bd
00000060: 95ad 473d 29b4 813c f655 85bd b451 acbd
00000070: e895 283e 7fbb bd3d 6f3e 143d 9c3d dfbd
00000080: 65f0 353e 3d6e 3bbd ead1 0bbd eccd 9a3d
00000090: e2b9 f13c e3d5 f43d 2126 2a3e 34db b0bd
000000a0: dcb2 02bd bd62 193d 0f8d 913d 40a4 a53b
000000b0: 88c0 383d 6ec3 8cbe 740a 233c fc68 863c
000000c0: e0cb 803e 44fb 133d 4e46 c0bc 1c41 40bd
000000d0: 8abb 333e 1e00 a03c 9c1d 15bd 4005 79bd
000000e0: 3e42 923c 3973 283d 5693 b33b b55b d0bc
000000f0: 8068 a93d 7d1e 11be 9aba 4c3d c7a2 03bd
00000100: 3f85 893d 2314 05be 0e83 e1bd ad79 5dbe
00000110: 81db 72bd e3a3 bd3e caea cd3c 7453 b43d
00000120: 2e02 ca3d 16f3 263d 8bb4 553c a571 063e
00000130: d664 fcbd f18e 9fbc 214d fc3d e342 a5bd
00000140: 5f22 2ebe c4b1 453d ebd8 5dbd d94d c9bd
00000150: 8915 90bd d977 4e3d b156 8e3d ffc6 963c
00000160: a80e 8bbd 41d6 523d c6b4 31bc d153 c8bc
00000170: f981 4abd d3fa 02bd 3712 3ebd 30cb 9cbc
00000180: 1c10 9c3d fac2 6cbe 2cc0 97bc 70e2 7e3d
00000190: d072 82bd d7ef 7b3d 9c57 cbbb 1059 fb3c
000001a0: 061e 26be cd91 7f3d d49e 063f ad14 9dbd
000001b0: fe9b ffbd eac9 1d3d 6284 54bb 9e01 fdbc
000001c0: d4bb 493e 38b1 1d3e b2e2 28bd e447 4cbe
000001d0: ab8b 313d d53e ea3d 623b 19bd 41d6 8e3d
000001e0: c652 48bc 2f54 a6bb d253 6fbc 4045 b2bb
000001f0: 11a9 3a3d 2dc7 62be 8998 89be 991f 90bc
00000200: c521 9ebb bc8a 61bb 2788 60bc ca74 c8bc
00000210: 78e1 e33c 70dc aa3b 0321 68bc aaef b1bd
00000220: e8ff 653c 5695 1cbd 703e 2f3e 68a9 083e
00000230: 089f 23bd 653c d6bd d46c 043e a5a2 ffbd
00000240: a0e7 24bc a43b 0dbc 530e 57bc eed8 843c
00000250: 3b46 ffbc aa0d 213e 3968 0e3e 951c 46bd
00000260: 1db1 9c3d 5128 583d fc89 b1bc 0263 40bd
00000270: 49a2 0d3d 09fa eebd e1f4 84bd 8621 943b
00000280: 484b 8e3d 7c86 a23d 3f1c 2f3a 93fc df3d
00000290: 5ea5 a4bc dbb8 a5bc 6d3e 59bd e22c 72bc
000002a0: 6e00 ad3c 305a 9ebb 0832 aa3d 1508 a8bd
000002b0: 663d 18bc a55c d23d 2d16 58be 53b9 1cbe
000002c0: b265 483d 6d52 243e a646 823e 43e9 d1bd
000002d0: 8ba4 cb3e 9e7f bbbd 415d b2bd 69dd 9f3c
000002e0: a960 053c 5955 523e a332 933d 63df 2f3c
000002f0: 4968 793d db1a 2d3e 12a4 37bd 149c 243e
00000300: 9011 773d 7a28 bc3d 601c a3bc fc8b 873d
00000310: e536 c8bc f17c a43a ad6c e43c 3955 babb
00000320: 7390 7cbc af27 3d3d 0f03 043d c87c c53c
00000330: 80ea 453b 7f61 353c b2f4 11bd 1182 42bd
00000340: 13e3 59bd 143b 9d3d e1a6 2bbd 9a5a f6bd
00000350: 271b 60bd 103c 64bd dc73 033e 1883 cd3d
00000360: c773 133e 28b1 9e3f 9c7c 033d 6fc8 35bd
00000370: 9c56 043b 0b6f 67bc 00b1 debc 9f3a 8bbd
00000380: 3956 d6bd 41be 85bc be78 6fbd d2e0 72be
00000390: f76e bf3d f835 803d 1c99 113d 400b c8bd
000003a0: e48b ee3c 7d4c 0a3d ec7a 16bc de7e a43d
000003b0: 186e 263d d0e8 1bbe 9d26 8f3d 1049 30bd
000003c0: 16a8 90bc a365 9b3d 5bfe 43bd 96ca 6fbb
000003d0: 7c2f 5b3c cf57 b73d 5d6b 523c cfd5 ad3d
000003e0: a19a a43d 7987 81be ac59 bb3d f3a2 0a3e
000003f0: 9503 b53d 189c 833d f962 0c3f 208a 1ebd

value_function_network.0.bias f4 [128]
0.24890178 -0.25880712 -0.074049406 -0.22117597 0.24671373 -0.0054056738 0.059103366 -0.0013083032
-0.12141142 0.0017672078 -0.026852055 0.006515802 -0.11660971 0.11106914 0.15268187 -0.186677
0.19407377 0.011422401 -0.038838875 -0.12830605 -0.09171765 -0.06041023 0.113202795 -0.06543469
-0.041238766 -0.068924434 -0.094191514 0.01493207 -0.037502848 -0.034628227 0.13551399 0.1160148
-0.121431254 -0.22698972 0.122038655 0.3678479 -0.05922188 -0.12281019 -0.05461298 -0.04392376
0.027639642 0.0041030645 0.10282729 0.16733862 -0.13373365 0.17657582 -0.11879607 -0.03520834
0.08005553 0.22140619 -0.13153198 -0.084667176 -0.13116999 -0.02476975 0.07572666 -0.21853328
-0.1385369 0.074701875 0.24224666 0.29053596 0.017170161 0.08662629 0.05614887 0.033642486
-0.2467492 0.005144848 0.011175229 -0.13517384 0.025690269 0.04396013 -0.14786112 -0.2787397
-0.058384936 -0.1580764 -0.076407306 0.10279532 -0.068631895 0.017103577 -0.078685045 -0.014908359
-0.1159016 -0.33874017 0.07211203 -0.24325994 0.15015136 0.06260998 0.11164173 0.046308924
0.2555923 0.23824033 -0.15990245 -0.0789241 0.06651086 -0.10171774 -0.13597581 -0.0960032
0.10122039 -0.066065975 0.08420758 -0.05237345 -0.095364265 -0.09281435 0.007899874 -0.013311179
0.0024783798 0.017838622 0.027816275 0.010620487 0.09416101 0.21420377 -0.26033932 0.07649992
-0.039469957 0.116373464 -0.08582736 0.04509878 0.17612718 0.08754323 0.02654243 0.14164703
-0.15337703 -0.14235842 -0.047670476 0.066956595 -0.100115746 0.0985911 -0.06767306 0.043700445
00000000: 1ce0 7e3e 5e82 84be 37a7 97bd f47b 62be
00000010: 86a2 7c3e 1422 b1bb 5f16 723d 5f7b abba
00000020: 8da6 f8bd a7a1 e73a d7f8 dbbc 8282 d53b
00000030: 12d1 eebd 3878 e33d a358 1c3e 4128 3fbe
00000040: 46bb 463e 0625 3b3c 8315 1fbd a962 03be
00000050: 77d6 bbbd b870 77bd ded6 e73d 9f02 86bd
00000060: fbe9 28bd 4128 8dbd 7be7 c0bd a4a5 743c
00000070: 969c 19bd 54d6 0dbd 2ec4 0a3e 2b99 ed3d
00000080: f3b0 f8bd fe6f 68be 67ef f93d 8f56 bc3e
00000090: a492 72bd e983 fbbd dcb1 5fbd 67e9 33bd
000000a0: 886c e23c 0073 863b 1d97 d23d d15a 2b3e
000000b0: 79f1 08be 4bd0 343e 5b4b f3bd 9f36 10bd
000000c0: 27f4 a33d 4eb8 623e 52b0 06be fc65 adbd
000000d0: 6d51 06be eee9 cabc 9416 9b3d 30c7 5fbe
000000e0: 9edc 0dbe 4cfd 983d 820f 783e 21c1 943e
000000f0: 70a8 8c3c 2069 b13d 5cfc 653d b4cc 093d
00000100: d3ab 7cbe 1d96 a83b 4f18 373c 036b 0abe
00000110: 6674 d23c 8a0f 343d e868 17be f8b6 8ebe
00000120: 0b25 6fbd c8de 21be 6f7b 9cbd 5a86 d23d
00000130: e18e 8cbd cd1c 8c3c a025 a1bd 3142 74bc
00000140: d15d edbd 5a6f adbe 79af 933d 2219 79be
00000150: 47c1 193e a939 803d 6ba4 e43d 6dae 3d3d
00000160: fedc 823e 46f5 733e 78bd 23be f5a2 a1bd
00000170: d936 883d 6451 d0bd 3e3d 0bbe 539d c4bd
00000180: a34c cf3d 994d 87bd 0675 ac3d 8b85 56bd
00000190: 574e c3bd 7315 bebd 796e 013c 2217 5abc
000001a0: 506c 223b 4d22 923c f5de e33c 8d01 2e3c
000001b0: 7dd7 c03d 3c58 5b3e 324b 85be fdab 9c3d
000001c0: 40ab 21bd 3655 ee3d 41c6 afbd 80b9 383d
000001d0: af5a 343e dd49 b33d 836f d93c eb0b 113e
000001e0: de0e 1dbe 68c6 11be 1e42 43bd 8a20 893d
000001f0: 7c09 cdbd 21ea c93d 2c98 8abd 3dff 323d

value_function_network.2.weight f4 [64, 128]
0.036755785 -0.054553106 -0.13993774 -0.033528615 -0.015773263 0.13423045 0.07836758 0.06236025
1.7333745e-05 -0.020989083 -0.023915187 -0.08002935 -0.05519845 -0.038817406 -0.052654486 -0.012886668
-0.005867153 0.09762634 0.0451134 0.10727868 -0.07550199 -0.009075701 0.1204756 0.006210905
-0.06553417 -0.09433454 -0.20752281 0.037402358 -0.11532742 -0.025964415 0.009901882 0.07173337
0.09907106 0.08294893 -0.028991686 0.04586169 0.05062783 -0.008991471 0.22625966 -0.015496022
0.056395542 -0.036160517 0.11416455 0.015092043 0.07968278 -0.016769176 0.040916134 0.14057873
0.059063036 -0.04840472 0.056322526 -0.032287184 -0.13790205 -0.07177954 -0.04556183 0.084588885
-0.15547077 -0.056791127 0.008117924 0.095565766 -0.03564396 0.0016433558 -0.011698879 0.041148596
-0.114574276 0.023882715 0.009360784 -0.10844773 0.048471093 0.05177833 0.084200524 -0.1111963
0.08499025 0.043778118 -0.06479248 -0.16461854 0.03219103 -0.040406168 0.020040859 -0.045699567
0.16032086 -0.06110957 -0.1689977 0.044273242 -0.0007300477 0.022361321 0.022495596 -0.014066066
0.103264675 0.02930761 -0.012509939 0.017170312 -0.15210427 0.10018261 0.10510313 0.11114758
-0.00863495 -0.24318448 0.0077787866 -0.14971085 -0.23062402 -0.12960567 -0.032619316 -0.094320245
-0.09042267 -0.051531292 -0.08137254 0.08079299 0.016575726 0.086335056 0.0523423 0.039123513
-0.03874084 -0.16825731 0.031608578 -0.034128506 0.04951825 -0.06886878 0.123877026 -0.049959294
-0.053456094 -0.2577496 -0.050863866 -0.016631067 -0.033341683 -0.26055485 -0.11676439 -0.14323512
0.078945 0.123257585 0.07560297 -0.09818608 0.1068434 0.17864275 0.023784116 -0.03049679
-0.0060612317 0.017382702 0.037062317 -0.04231294 -0.0521873 0.093899645 0.0045520784 0.06367837
0.0075353775 0.011629091 0.08530096 -0.011289603 0.056183446 -0.13658774 -0.02486127 -0.014463246
-0.13897328 0.056671266 -0.0017335932 -0.009536538 0.023668395 0.014467201 0.006163453 0.107725196
0.09404405 -0.08433357 -0.011586965 -0.06522572 0.05304451 0.12777299 0.063399404 0.17554428
0.09076145 -0.015630886 -0.037034012 -0.0846346 0.017678648 0.012095014 -0.07068543 0.11221777
-0.079392366 0.012087204 0.047687262 0.046076395 0.12956394 -0.021848453 0.13432762 -0.102456056
0.03414974 0.060391996 0.028450333 0.12506248 0.12973323 0.005782352 -0.08147451 0.01031273
0.080017164 0.048378974 -0.023095464 -0.09362525 0.088755056 -0.069436505 0.09660114 0.035192195
-0.02469837 0.14695369 -0.03023091 -0.06478393 0.12257012 0.040814932 0.037742853 0.00020649168
-0.044912957 -0.0042931107 0.057143338 -0.053795837 0.011474428 -0.022537239 0.14250234 0.040595695
0.12864302 0.07987951 0.014124366 -0.0011402661 -0.08465728 0.068547264 -0.009893212 0.052061647
-0.01171301 -0.102257594 0.0018309877 -0.12322861 0.14586465 -0.14056773 -0.066788815 -0.04280123
-0.11457195 -0.01605711 -0.046768125 -0.08598367 0.061018173 -0.021470651 0.035172645 -0.071247585
-0.022019714 0.082024746 0.026576724 0.088951245 -0.034710355 -0.01299264 0.034426335 -0.09170106
0.124249965 -0.3747256 -0.023483697 0.12256746 0.09045927 -0.28068545 -0.21083903 -0.15671748
00000000: 3c8d 163d 1473 5fbd d74b 0fbe 4d55 09bd
00000010: ee36 81bc b573 093e 2f7f a03d 766d 7f3d
00000020: ef67 9137 4cf1 abbc c8e9 c3bc 6ee6 a3bd
00000030: c517 62bd 00ff 1ebd 3bac 57bd 9a22 53bc
00000040: 3f41 c0bb 52f0 c73d d4c8 383d edb4 db3d
00000050: caa0 9abd 40b2 14bc e9bb f63d d984 cb3b
00000060: c736 86bd 7832 c1bd dc80 54be 3733 193d
00000070: c830 ecbd 53b3 d4bc 813b 223c f2e8 923d
00000080: c5e5 ca3d 21e1 a93d f97f edbc 78d9 3b3d
00000090: 215f 4f3d f650 13bc 9db0 673e 07e3 7dbc
000000a0: 03ff 663d 0d1d 14bd 1bcf e93d 9e44 773c
000000b0: ba30 a33d 835f 89bc ad97 273d dff3 0f3e
000000c0: 15ec 713d 0744 46bd 73b2 663d 913f 04bd
000000d0: 3236 0dbe 2701 93bd 0b9f 3abd f03c ad3d
000000e0: bb33 1fbe d09d 68bd 0b01 053c fcb7 c33d
000000f0: 67ff 11bd df65 d73a a8ac 3fbc 6e8b 283d
00000100: eba5 eabd afa5 c33c f95d 193c d819 debd
00000110: a089 463d 8415 543d 5371 ac3d e3ba e3bd
00000120: 5e0f ae3d af50 333d ebb1 84bd c391 28be
00000130: beda 033d f080 25bd ba2c a43c 782f 3bbd
00000140: 272b 243e 074e 7abd bc0d 2dbe dc57 353d
00000150: ac60 3fba 172f b73c af48 b83c 5b75 66bc
00000160: 6e7c d33d 8316 f03c 7df6 4cbc c1a8 8c3c
00000170: 39c1 1bbe 8a2c cd3d 4f40 d73d 58a1 e33d
00000180: 9b79 0dbc 5a05 79be 31e5 fe3b cd4d 19be
00000190: b428 6cbe 59b7 04be d59b 05bd f92a c1bd
000001a0: 852f b9bd 7a12 53bd a5a6 a6bd cc76 a53d
000001b0: d1c9 873c 6fd0 b03d e164 563d fa3f 203d
000001c0: b7ae 1ebd a54b 2cbe ff77 013d 55ca 0bbd
000001d0: a6d3 4a3d 130b 8dbd 3db3 fd3d 1ea2 4cbd
000001e0: c7f4 5abd c1f7 83be a156 50bd e03d 88bc
000001f0: 4a91 08bd 7267 85be 2b22 efbd 3aac 12be
00000200: ebad a13d 796e fc3d bbd5 9a3d c915 c9bd
00000210: b6d0 da3d 20ee 363e e8d6 c23c 67d4 f9bc
00000220: 4c9d c6bb 2b66 8e3c a8ce 173d 5550 2dbd
00000230: 5ac2 55bd 754e c03d 9a29 953b ce69 823d
00000240: 54eb f63b f187 3e3c 45b2 ae3d 07f8 38bc
00000250: 9d20 663d a8dd 0bbe dda9 cbbc 40f7 6cbc
00000260: 034f 0ebe 2120 683d bc39 e3ba 243f 1cbc
00000270: 39e4 c13c d707 6d3c cbf6 c93b 079f dc3d
00000280: 2b9a c03d 14b7 acbd 41d7 3dbc 1095 85bd
00000290: 3345 593d ecd6 023e 8cd7 813d e1c1 333e
000002a0: 24e1 b93d 580c 80bc fab0 17bd e854 adbd
000002b0: d0d2 903c 2a2a 463c 86c3 90bd 6ed2 e53d
000002c0: 7798 a2bd 6809 463c b853 433d 9aba 3c3d
000002d0: 69ac 043e 87fb b2bc 2e8d 093e 7bd4 d1bd
000002e0: 99e0 0b3d 995d 773d ac10 e93c 6110 003e
000002f0: cad8 043e e279 bd3b 1cdc a6bd baf6 283c
00000300: 0ae0 a33d 0829 463d b332 bdbc 98be bfbd
00000310: 36c5 b53d ba34 8ebd d2d6 c53d b125 103d
00000320: 3c54 cabc 077b 163e d0a6 f7bc 70ad 84bd
00000330: 0b06 fb3d 8f2d 273d 4098 1a3d b085 5839
00000340: a6f6 37bd 39ad 8cbb 220f 6a3d 0659 5cbd
00000350: 3dff 3b3c 04a0 b8bc 22ec 113e ac47 263d
00000360: ffba 033e de97 a33d e369 673c fb74 95ba
00000370: cc60 adbd 8262 8c3d 2317 22bc 983e 553d
00000380: ede7 3fbc 6e6c d1bd c1fd ef3a 485f fcbd
00000390: 8b5d 153e fdf0 0fbe 93c8 88bd 5850 2fbd
000003a0: b3a4 eabd 338a 83bc ef8f 3fbd 3518 b0bd
000003b0: 31ee 793d 38e3 afbc 3111 103d 41ea 91bd
000003c0: b062 b4bc 97fc a73d 6eb7 d93c 122c b63d
000003d0: 722c 0ebd 15df 54bc a102 0d3d c4cd bbbd
000003e0: c476 fe3d 09dc bfbe e260 c0bc a604 fb3d
000003f0: b642 b93d 01b6 8fbe 30e6 57be 8c7a 20be

value_function_network.2.bias f4 [64]
-0.11325474 0.2339408 0.17740016 0.16600505 -0.035316046 -0.13711606 0.15472344 0.28496924
-0.16007449 0.11894229 -0.0039103134 0.010498372 0.18673088 0.022741893 -0.10041958 0.16957988
0.14652453 -0.283055 -0.037942965 0.13045831 -0.16202559 -0.17316796 0.04683477 0.19435842
-0.06518403 -0.0783553 0.15281092 -0.087478936 -0.164053 -0.18143354 0.17544273 -0.15072119
-0.13739401 0.21075033 0.3357727 0.2452034 0.043330707 0.2714877 0.31812915 0.11552723
-0.053570926 -0.19959554 0.21238652 -0.2140306 0.0036367034 -0.12446112 -0.20353498 0.28245643
0.2943588 0.069371976 -0.032254353 0.07770783 -0.14770414 0.06238872 0.18380427 0.17170113
0.110007726 -0.1699128 -0.046263922 0.19362064 -0.23346776 0.12114586 -0.06210024 -0.092732094
00000000: 1af2 e7bd 2d8e 6f3e 63a8 353e 3afd 293e
00000010: 8fa7 10bd 2768 0cbe d26f 1e3e 7de7 913e
00000020: 91ea 23be 0498 f33d 1622 80bb 5d01 2c3c
00000030: 6136 3f3e 354d ba3c c8a8 cdbd 59a6 2d3e
00000040: 870a 163e 96ec 90be 156a 1bbd dd96 053e
00000050: 09ea 25be f152 31be d1d5 3f3d e505 473e
00000060: 347f 85bd be78 a0bd 777a 1c3e 2828 b3bd
00000070: 82fd 27be b7c9 39be 42a7 333e a856 1abe
00000080: 04b1 0cbe efce 573e 66ea ab3e 9a16 7b3e
00000090: 8a7b 313d 7000 8b3e d3e1 a23e 8a99 ec3d
000000a0: 306d 5bbd c662 4cbe da7b 593e d62a 5bbe
000000b0: c255 6e3b 79e5 febd 796b 50be 219e 903e
000000c0: 32b6 963e e512 8e3d 241d 04bd 4825 9f3d
000000d0: c13f 17be 518b 7f3d 3037 3c3e 6cd2 2f3e
000000e0: bb4b e13d 9ffd 2dbe 3d7f 3dbd 7d44 463e
000000f0: 2c12 6fbe 521b f83d d25c 7ebd 53ea bdbd

value_function_network.4.weight f4 [1, 64]
-0.16068907 0.12576906 0.1556316 0.14051007 -0.1945442 -0.2370733 0.18094802 0.087965794
-0.18488008 0.11346569 -0.20668012 -0.15785782 0.2830701 -0.24892338 -0.19092405 0.35788584
0.08408112 -0.22347336 -0.22626391 0.08897606 -0.116229236 -0.24494842 0.21112777 0.12734735
-0.18967178 -0.17631237 0.11756572 -0.25273937 -0.33322495 -0.076910354 0.07111902 -0.17110196
-0.21103801 0.09262127 0.10762058 0.21415587 -0.10114057 0.13372739 0.12116081 0.09711712
-0.18749131 -0.10471472 0.15356854 -0.28503764 0.3068961 -0.25741303 -0.164312 0.18773822
0.12344276 0.1870037 -0.26736575 0.19887918 -0.2828461 0.16620208 0.16380224 0.14232439
0.13106118 -0.11958564 -0.21470897 0.17924869 -0.20992427 0.12742962 -0.25420108 -0.20668367
00000000: ad8b 24be 9bc9 003e e45d 1f3e dfe1 0f3e
00000010: 9836 47be 58c3 72be 704a 393e 6927 b43d
00000020: 3451 3dbe b360 e83d f4a3 53be 7ba5 21be
00000030: 90ee 903e c5e5 7ebe 9881 43be d03c b73e
00000040: b932 ac3d 33d6 64be bab1 67be 1539 b63d
00000050: 9809 eebd c2d3 7abe e131 583e 5867 023e
00000060: 5239 42be 3b8b 34be 4cc6 f03d 0e67 81be
00000070: 769c aabe 2d83 9dbd d9a6 913d 5a35 2fbe
00000080: 591a 58be 38b0 bd3d 2e68 dc3d ad4b 5b3e
00000090: ca22 cfbd d5ef 083e 2923 f83d 57e5 c63d
000000a0: b9fd 3fbe ac74 d6bd 1241 1d3e 74f0 91be
000000b0: 7c21 9d3e a4cb 83be 6841 28be 733e 403e
000000c0: 8fcf fc3d e67d 3f3e 2ae4 88be fca6 4b3e
000000d0: 34d1 90be e130 2a3e c6bb 273e 7cbd 113e
000000e0: e734 063e 51e9 f4bd abdc 5bbe f88c 373e
000000f0: 63f6 56be e97c 023e a526 82be e2a4 53be
