notebooks/Reacher-PPO/actor.pth (torch, 54318 bytes, 7 tensors)

logvar f4 [4]
000000 a2 fd 36 41 2b 00 37 41 88 f6 35 41 08 fa 35 41
       11.436922 11.437541 11.372688 11.373543

policy_network.0.weight f4 [128, 33]
000000 cc 9f 16 bf 32 19 ee 3c d5 98 8c 3d 17 5c be 3d
       -0.5883758 0.029064748 0.06865088 0.092949085
000010 8e 71 02 bf 08 e1 c8 3e 49 dd e3 3d 2b 85 0d bd
       -0.5095452 0.39234185 0.11126191 -0.034550827
000020 1c d8 27 3e ab 1f 0d be be 41 90 be ec cc 68 be
       0.16391033 -0.13781612 -0.28175157 -0.22734421
000030 63 72 e3 3c c5 38 f7 3e d7 94 0b bf c9 42 13 bd
       0.027764505 0.482855 -0.54523987 -0.035952363
000040 78 de 48 3f 16 9c 9c be 94 0a 63 3f 0f 3a 50 3e
       0.7846446 -0.30587834 0.88688016 0.20334648
000050 7e 62 b3 3c da 96 94 bd a1 d0 d9 be 39 62 8e 3e
       0.02189755 -0.07255335 -0.42541984 0.27809313
000060 a1 6e ac be 5e 4d 3c bd cd 65 d6 3d 97 62 c6 3d
       -0.33678153 -0.04597222 0.10468636 0.09686773
000070 9c d9 de 3d b2 34 20 3c 1b 97 81 3d eb 2f ec bc
       0.108813494 0.009778189 0.06327649 -0.028831443
000080 83 27 c4 be 7c b7 1b 3f e6 26 b6 be 3c 14 e4 3e
       -0.38311395 0.6082685 -0.35576552 0.44546688
000090 8f be f5 3d dd ef 21 3f 17 11 10 3e df 33 f1 3e
       0.11999237 0.6325663 0.1406902 0.47109887
0000a0 68 9d e4 3d 3a d4 92 be fd 49 16 3e a8 01 05 3d
       0.11162835 -0.2867754 0.14676662 0.032472283
0000b0 b2 73 fa 3d 31 4d 83 bc e8 6f 5c be 3d 66 1c bf
       0.122290984 -0.016028019 -0.21527064 -0.61093503
0000c0 95 16 fa be fe 2f 8a 3f 7f 0f 5d 3a 83 be 2a bf
       -0.48845354 1.0795896 0.000843279 -0.6669695
0000d0 1e ce 00 3f e6 36 a8 be 35 88 90 bd ed 6c 64 3e
       0.5031451 -0.32854384 -0.070572294 0.22307177
0000e0 68 97 74 bd ee 67 9c be dc f4 07 be bb 54 01 be
       -0.059714705 -0.30548042 -0.13277 -0.12629978
0000f0 7e 7b 0b be 2d c6 c9 be af dc 1d be 52 51 d4 3d
       -0.13621327 -0.3940901 -0.15416215 0.10367073
000100 4d eb 8c 3d 1c 74 2c bf 24 a0 06 bf 81 82 65 be
       0.068808176 -0.6736467 -0.52588105 -0.22413065
000110 09 38 cb be e6 9f b5 3e 96 e2 7f be 57 7c fe be
       -0.3969119 0.35473555 -0.2498878 -0.4970424
000120 56 6f ac be 37 95 31 3e 67 a4 10 3e 3b 37 a9 3c
       -0.33678693 0.17342077 0.14125215 0.020656219
000130 ce 87 58 3d 1b fc 96 3d 46 6d 95 bd 10 3a c6 3e
       0.05286389 0.07372304 -0.07296233 0.38716173
000140 27 2e 2b be 5c 8c 88 3e ff 79 a0 bf d4 e5 d3 3e
       -0.16716824 0.26669586 -1.253723 0.41386282
000150 2d 3f 2e 3f bd f7 e5 be aa 2c c1 bd 6e 5c b4 3e
       0.6806515 -0.44915572 -0.09432347 0.35226768
000160 8e 7d 53 bd 4c 54 0f 3e a2 5d 6c bd a5 6f 30 3e
       -0.05163341 0.13997 -0.057706483 0.17230089
000170 39 e4 95 3d 49 00 4f be 40 f4 a4 be e7 3f e6 bd
       0.07318921 -0.20214953 -0.32217598 -0.11242657
000180 9c 6c aa 3e 86 68 ec bd b4 dd a2 3f ef 0b bc be
       0.33285987 -0.11543374 1.2723908 -0.36727855
000190 65 cf 9c bd e0 8f 96 3d a3 12 63 bd fa 0e de be
       -0.07656745 0.07351661 -0.055437695 -0.433708
0001a0 e5 0d f2 bc 87 a6 4d be 41 d5 86 be ff 13 9d 3e
       -0.029547641 -0.20083056 -0.26334575 0.30679318
0001b0 4b ae 26 be 12 ce 26 3d 78 75 0d 3d 24 78 c6 3c
       -0.16277425 0.040723868 0.034535855 0.02422721
0001c0 6f 21 c6 3e 9f ec 14 bf 02 47 ad 3d 01 6c e5 3d
       0.38697383 -0.58173555 0.08460809 0.11202241
0001d0 85 97 ee be 75 97 1f 3f 12 fe 19 bd ba 22 06 3e
       -0.46599975 0.6234048 -0.037595816 0.13099185
0001e0 1c b0 95 bd b5 be 63 be e5 d1 43 3e 80 e9 0a be
       -0.07308981 -0.22240718 0.19123037 -0.13565636
0001f0 8a 0a 6e 3c b6 a8 b7 3c 51 32 cd b9 27 34 dc 3e
       0.01452888 0.022419315 -0.00039138136 0.4300854
000200 d4 08 08 3e 7c 90 10 3e de d7 34 3d 32 46 49 bf
       0.13284618 0.14117616 0.04415118 -0.78622735
000210 61 52 d7 3e cb 01 e9 bd 33 8d af 3e 77 4c 8f 3e
       0.42055038 -0.11377295 0.34287414 0.27988026
000220 06 ad f6 3d 6b fd db bb 59 55 94 3d 8c 2e 23 3e
       0.1204472 -0.0067135594 0.07242841 0.15935725
000230 b6 a1 2e 3e b8 53 09 3e df d3 4e 3e 9a 5f e4 bd
       0.17053875 0.13410842 0.2019801 -0.11151047
000240 4b 51 74 bd e6 37 f7 3d d5 ad 7e be f3 af d6 be
       -0.05964784 0.12071209 -0.24870999 -0.41931114
000250 9b a1 3d 3e 6f 1a 31 be d3 ab da 3c 49 75 29 be
       0.18518679 -0.1729524 0.02669326 -0.16548647
000260 7d b2 09 3e 2a 58 e9 be 66 37 80 3e 70 39 74 3e
       0.13446994 -0.45575076 0.25042266 0.23850036
000270 04 d7 bd 3e ba af 1d bd 6b 49 1b bc fe 47 ec bd
       0.37078106 -0.038497664 -0.009477953 -0.11537169
000280 a0 cf ea 3e 29 88 07 bd 7b 23 1d 3e 6f aa ca 3d
       0.4586153 -0.033088837 0.15345566 0.09895789
000290 32 dc 11 3f a6 08 a0 3e 82 e0 b1 be e1 bd c6 bc
       0.56976616 0.31256598 -0.34741598 -0.024260463
0002a0 5f 43 5f 3e e0 67 d8 3c b0 63 7a 3d 3b 6a ad bc
       0.21803044 0.026416719 0.061130226 -0.021168819
0002b0 6d 53 05 bd 7c 9b f1 bd c9 26 4e 3d 3a 22 3a 3d
       -0.032550264 -0.117972344 0.050329957 0.045442797
0002c0 b8 01 85 bd 42 d3 ab bd 77 2e 02 bf 16 3f c5 3e
       -0.064944685 -0.083899036 -0.5085215 0.38524693
0002d0 6f d1 6f bd bf 3b a6 be a0 3a 02 3e cd b9 f9 be
       -0.05854934 -0.32467458 0.12717676 -0.48774567
0002e0 3a 8d 0e bf 48 16 ab 3e 37 c1 af be 45 49 1e bd
       -0.55684245 0.33415437 -0.343271 -0.038644094
0002f0 3c ad 2c 3e 82 c9 9c 3e 53 df b1 bd 76 f7 fd 3e
       0.16862959 0.30622488 -0.08685174 0.4960286
000300 b9 9f 2e be 52 c4 b7 3d 25 a6 8b bd 1c 57 a5 3e
       -0.17053117 0.08972992 -0.06818799 0.32293022
000310 38 bc 12 bd 03 2b d6 bd 15 6a 5f bd c2 22 ee bc
       -0.03582403 -0.104574226 -0.054544527 -0.029069308
000320 e3 b5 2a be 31 ef 45 3d 70 ea 1c b8 29 fb f9 3c
       -0.16670947 0.048323814 -3.7411635e-05 0.03051527
000330 89 da eb 3c fa 50 bf bd 8f 45 e6 bd 36 57 e7 be
       0.02879073 -0.09341617 -0.11243736 -0.45183724
000340 85 0b 1b bf ea 83 99 be ef e1 ab bc 31 c6 ca 3c
       -0.6056445 -0.29983455 -0.020981757 0.024752708
000350 47 78 a6 be 91 be 6e be ae 0f 9e 3e 17 ef 8d be
       -0.3251364 -0.23314883 0.30871338 -0.27721474
000360 e3 60 6e 3e ff 05 c8 be df 89 96 3e f3 96 82 3d
       0.23279147 -0.39067075 0.29402062 0.063764475
000370 73 ac 01 be 84 ea 1e bf 86 b8 4f 3d c3 b7 5f 3e
       -0.1266344 -0.6207659 0.050713085 0.21847443
000380 72 46 b1 3e e2 25 38 3c fb be 16 3e 17 26 17 3d
       0.34624058 0.011239501 0.14721291 0.03690156
000390 88 d9 50 be 5c 93 2f be 50 a9 ca bd 05 4b 94 bd
       -0.20395482 -0.17146057 -0.09895575 -0.07240871
0003a0 b9 6a a5 3c 0b 8d db be f3 16 74 bd 1b 72 3a be
       0.02019249 -0.42881045 -0.0595922 -0.1820759
0003b0 3d 79 83 be 21 07 a6 be 7f 9f 4d 3e dd f9 26 be
       -0.25678435 -0.32427314 0.20080374 -0.16306253
0003c0 d5 16 f3 3d d6 77 a5 3d fd 29 95 3e dd 49 55 be
       0.11869589 0.080794975 0.29133597 -0.20828958
0003d0 0a b7 02 be 14 71 41 be aa b1 9e 3e 04 a0 0b bf
       -0.12765136 -0.18890792 0.30994922 -0.5454104
0003e0 8b 31 08 be 7f 4d 93 3e 16 b9 ce 3e 5c 0c 31 3f
       -0.13300149 0.28770062 0.40375584 0.69159484
0003f0 06 93 42 bd 63 a0 33 3c a3 af ba 3d 68 d1 06 bf
       -0.047503494 0.010963532 0.09115531 -0.5266328

policy_network.0.bias f4 [128]
000000 e3 ca 38 be 09 a3 c3 bc 0d aa a9 3e a3 a8 2a 3e
       -0.18046145 -0.023881452 0.3313755 0.16665892
000010 1d 29 8f 3d 00 94 b7 3e 49 bb 9b 3d cd 27 5f 3c
       0.069902636 0.35855103 0.07604081 0.013620329
000020 eb 5c 3d 3e 4b ac 5a 3e 8e 8c 52 3e 44 4b 94 3d
       0.18492477 0.21354787 0.2056143 0.07240918
000030 5a 1b 9c 3e 37 25 1e 3e 41 7b 65 3d 71 94 d6 3d
       0.30489618 0.15443884 0.056025747 0.10477532
000040 fd e5 60 3e 88 92 bd 3e 50 4b bf 3e 5f 02 5b 3e
       0.21962734 0.37025857 0.37362146 0.21387623
000050 a9 55 e1 3e e7 95 80 3d b4 d6 93 3e 70 06 af 3e
       0.44010666 0.062785916 0.28874743 0.341846
000060 c7 e4 bb 3e fc 9a 4d 3e aa e6 70 3e b2 c1 66 be
       0.3669798 0.20078653 0.23525491 -0.22534826
000070 fc 3d b6 3e b3 7f 4f 3e 29 fa 11 be 29 c6 65 3d
       0.35594165 0.20263557 -0.14255585 0.056097183
000080 b9 84 97 3e 33 44 7f 3e ed f4 a5 3d c1 44 70 3e
       0.29593447 0.2492836 0.081033565 0.23463728
000090 8a ea ac 3e df f7 5f 3e ed ed 58 3e 55 6a d8 3d
       0.3377269 0.21871899 0.21184511 0.10567156
0000a0 05 92 de 3d 2d 8d 57 be c1 ee 76 3e d8 a1 1b bd
       0.10867695 -0.21049948 0.24114515 -0.037996143
0000b0 f4 26 66 3e 79 bf 15 be d5 5c 8b 3e 12 a0 eb 3e
       0.22475797 -0.14623822 0.27219263 0.4602056
0000c0 1d 67 43 3d fc 5c 21 3e d0 aa 3f be 35 2e af bd
       0.04770576 0.15758127 -0.18717504 -0.08553735
0000d0 9c 17 cf 3e 28 c2 0a 3e f8 83 2e 3e 02 2b b3 3e
       0.404477 0.13550627 0.1704253 0.3499375
0000e0 0c 03 a7 3e e1 b3 77 3c d2 33 41 3e eb 87 38 3e
       0.32619512 0.01511857 0.18867424 0.18020599
0000f0 15 4f 48 3e 2e 3a f6 bd ea eb 60 3d 4e ec 54 be
       0.19561417 -0.12022816 0.054912485 -0.20793268
000100 d1 dd 9a 3e 9f 1f da 3e 9b 64 db 3c 99 f8 a3 3d
       0.30247357 0.4260225 0.02678137 0.080064006
000110 e4 92 67 3e 54 9c bb 3e 20 ad 29 3e 10 96 df 3e
       0.22614628 0.36642706 0.16569948 0.43669176
000120 79 79 af 3e da 1a 6b bc 4c eb 53 3e cf 7f 1b 3e
       0.34272364 -0.014349664 0.20695227 0.15185474
000130 95 be a7 3e 26 e6 15 3e 5d a8 6a 3e 20 1e c8 3d
       0.3276259 0.14638576 0.22915788 0.09771371
000140 55 e6 f0 3d d6 3e 91 bd 83 ed e2 3e 01 83 77 3e
       0.11762682 -0.07092063 0.44321832 0.24171068
000150 11 61 28 3e 52 3e 41 3e 71 1a 95 3d 2a d8 81 3e
       0.16443278 0.1887143 0.07280434 0.25360233
000160 77 f5 6a 3e bc 85 5f 3e a1 d3 3f be 94 62 5b be
       0.229452 0.2182836 -0.18733074 -0.21424323
000170 91 4f 61 3e 54 04 04 3e f9 d1 13 3e 13 6c 36 be
       0.22003008 0.12892276 0.14435567 -0.17814665
000180 85 92 45 be f8 69 bb 3d 1f 3c 5f 3e f7 94 1b 3d
       -0.19294174 0.09151071 0.21800278 0.03798386
000190 61 e4 46 3e a2 b3 64 3c b1 3e ae 3d 1b dc 14 3e
       0.19423057 0.013958843 0.08508051 0.14537089
0001a0 64 66 70 3e 54 3f 7f be 3b 44 6e 3e dd 7f d3 3d
       0.23476559 -0.24926502 0.23268215 0.10327122
0001b0 18 42 4e 3d ac ca 8e 3e 0e e1 be bd a2 f8 71 3d
       0.050356 0.27889 -0.093202695 0.059075005
0001c0 46 91 25 3c 20 31 59 be de 70 4d bd 67 19 8e 3d
       0.010105437 -0.21210146 -0.050156467 0.06938439
0001d0 a2 29 8b 3e f7 a5 3f 3e db 8c 37 3c ae b3 c7 3e
       0.271802 0.18715654 0.011203016 0.39004272
0001e0 fc 93 3c 3e 71 37 d0 3e 46 56 94 3d 2b d4 a7 bd
       0.18415827 0.40667298 0.07243018 -0.08194765
0001f0 4d 50 01 3c 21 7c 73 bc 08 3d 27 3e 3d ff 47 3e
       0.00789268 -0.014861138 0.16331875 0.1953096

policy_network.2.weight f4 [64, 128]
000000 62 82 cc 3e d3 2c 4e be 6d ff 91 3c c5 6c 13 3f
       0.39943224 -0.20134287 0.017821992 0.57587844
000010 8b 21 cd 3e 30 a0 c2 bd a3 4b fd 3b 63 c2 aa 3d
       0.40064654 -0.095032096 0.007729964 0.083378576
000020 5c 31 0d 3e fa 4f 77 3d e7 f3 f4 3e 84 1c 79 3d
       0.1378836 0.060379006 0.47842333 0.06081821
000030 03 b5 18 bf eb 5a c6 be 2a 76 ef bd d0 7f 2a 3f
       -0.596512 -0.3874124 -0.1169246 0.66601276
000040 81 7e f8 bd d2 4d db 3d 9a 9d 0d be fd 72 ca 3d
       -0.12133504 0.107082024 -0.13829651 0.098852135
000050 df 9b 41 be 46 b7 d0 be 40 e4 2b 3e e7 af 8f be
       -0.18907116 -0.40764827 0.16786289 -0.2806389
000060 8f 77 0c 3f 1d 00 27 3f 27 2c 29 3f 64 2d 88 be
       0.5486993 0.6523455 0.66082996 -0.2659713
000070 cf 7e 5b 3e aa 9e f1 be 8b 7a 0a bc 2a 89 8e 3e
       0.21435092 -0.47191364 -0.008452068 0.27839023
000080 25 00 d6 bd 7c fd 16 bd 16 11 48 bc ac e1 08 3e
       -0.10449246 -0.036862835 -0.012211105 0.13367337
000090 09 f1 3b 3e e9 b4 e0 be a1 c4 0c 3f 43 b0 ef bd
       0.18353666 -0.43888023 0.5498753 -0.11703541
0000a0 18 9b e4 3d c5 88 23 3e ee 46 43 be e1 5e 91 bc
       0.11162394 0.15970142 -0.19070026 -0.017745437
0000b0 f6 7a 12 be 96 bf 1b 3e 32 c6 a6 3e e0 e3 aa 3d
       -0.14304718 0.15209803 0.32573086 0.08344245
0000c0 f2 58 03 bf 37 42 09 bd b5 56 f8 3e 81 8e 99 3d
       -0.51307595 -0.033510413 0.48503652 0.074978836
0000d0 fa a9 d9 be 2e 19 8a 3e 0c 4b d1 be 10 72 bf 3e
       -0.42512494 0.26972336 -0.4087757 0.3739171
0000e0 54 2d 06 bf 56 5f 3b 3b 1c e8 30 3f 7e ce 77 3e
       -0.52412915 0.002859076 0.6910417 0.24199864
0000f0 44 e1 05 3e 96 59 e1 3d 28 3e 5d be 53 ed db be
       0.13074213 0.11003415 -0.21605742 -0.42954502
000100 ff e5 da 3e 65 5e d0 3e fd c8 e2 be b6 7e 05 3f
       0.42753598 0.40697017 -0.44293967 0.5214647
000110 34 5f 0f 3f 14 ae 15 3f 10 d1 96 3e b5 d3 13 3f
       0.56004643 0.5846875 0.29456377 0.57744914
000120 11 0c f0 3e 31 ac f4 bc 14 99 e4 3e 76 2d 5c 3e
       0.46884206 -0.029867264 0.4464804 0.21501717
000130 89 03 e7 bc 4d 98 c9 3e 34 ca 93 3e d6 46 be 3d
       -0.028199928 0.3937401 0.28865206 0.09290855
000140 5d fe b6 3e 3d 60 54 3f ea 14 4f 3e ef e9 2e bd
       0.3574094 0.8295935 0.20222822 -0.042703565
000150 0a b5 f1 be 69 b2 b1 3e 82 de bb 3d c9 64 ad 3d
       -0.47208434 0.3470643 0.09173299 0.08466489
000160 9d 37 c7 3e 20 46 83 3d 8a a7 16 bd d4 21 a7 3e
       0.38909617 0.0640986 -0.03678087 0.32642996
000170 3c ad a6 3e e6 09 12 3f ca c7 47 3d 9c c2 f6 bd
       0.32554042 0.57046354 0.048774518 -0.120488375
000180 6c d3 f2 3e 21 ca 80 3e 58 96 b9 be 2c 9a 85 bb
       0.47426927 0.25154212 -0.36247516 -0.0040772166
000190 32 40 9f 3e 45 92 ee 3e 9f b9 0c 3e d1 d1 70 be
       0.31103665 0.4659597 0.13742684 -0.23517539
0001a0 95 07 78 3e b0 cd 27 3f d6 fb 02 3f 7e 1c 17 bf
       0.24221642 0.6554823 0.5116552 -0.5902785
0001b0 48 4b 14 bf 29 56 8a be 79 2f 99 3e f2 a3 6b 3e
       -0.5792737 -0.2701886 0.2991903 0.23011759
0001c0 83 02 f9 3e 07 5e 77 3e 08 35 99 3e 0e 7d b5 3e
       0.4863473 0.24156962 0.29923272 0.35446972
0001d0 e6 e8 f2 be 94 9a 98 ba 34 b7 05 3f c5 20 fc be
       -0.47443312 -0.0011642748 0.5223267 -0.4924375
0001e0 86 81 af be 61 5a 80 be ce e4 ae 3c c1 81 27 3f
       -0.34278506 -0.25068954 0.021349337 0.65432364
0001f0 38 09 16 3f 7d b5 1c 3f d5 47 03 3e d8 08 fc 3d
       0.58607817 0.6121443 0.1282037 0.12306374
000200 cb e4 e7 bd ed 65 52 3f f9 7a b6 be ca 2b 77 bd
       -0.11322936 0.82186776 -0.35640696 -0.060344495
000210 60 06 af 3e f3 52 fd 3e 6d 84 11 bd ea ec 74 be
       0.3418455 0.49477348 -0.03552668 -0.239185
000220 97 10 4f 3f 53 d5 1b bb b3 37 20 3d b5 d2 14 3f
       0.8088469 -0.0023778274 0.03911562 0.58134013
000230 d0 68 97 3e 5c 19 5c 3f 41 da 6d 3c 52 7b a9 be
       0.29572153 0.85976195 0.014517368 -0.33101898
000240 81 27 f0 3e 93 c2 6c 3d b0 43 46 be 94 b2 47 be
       0.4690514 0.057802748 -0.19361758 -0.19501716
000250 33 02 9a 3e 1b 63 7e 3b ad c4 96 bd f9 a6 cb 3e
       0.30079803 0.0038816396 -0.07361732 0.39775828
000260 d9 be b1 bd b6 b4 63 be 63 3c 60 bf 35 6c 38 3f
       -0.086789794 -0.22236905 -0.8759214 0.7204011
000270 6b 88 43 be 56 49 16 bc 43 a1 ca be a7 2a 0c 3e
       -0.19095008 -0.009172758 -0.39576158 0.13688146
000280 b9 65 ae 3e bc bd 26 3e ef f5 80 be e4 5b af 3e
       0.34061983 0.16283315 -0.25187632 0.34249794
000290 52 6e ab 3d 01 09 2d be 35 d4 9a 3e 98 55 43 3f
       0.08370651 -0.16897966 0.30240026 0.7630248
0002a0 33 22 7d bf 14 93 f9 be c1 00 70 3e 9c 88 4e 3d
       -0.9888031 -0.48745024 0.23437788 0.05042325
0002b0 35 15 3a 3f fe b0 af 3d b6 fa c6 3e 88 d2 b0 3e
       0.7268861 0.085786805 0.38863152 0.34535623
0002c0 32 a0 73 3e c9 6a dd 3e 76 4a bf bc 0b 41 57 3e
       0.23791578 0.43245533 -0.023350935 0.21020906
0002d0 60 16 6f 3e 0b 05 5f be 9f b0 3f 3f e3 be 3f 3f
       0.23348379 -0.21779267 0.7487888 0.74900645
0002e0 d7 e6 65 3d 45 ba 0b 3f 8d 13 10 3e 93 39 91 3d
       0.05612835 0.545811 0.14069958 0.070910595
0002f0 b1 81 2b 3e 0e ee 5a 3f 3c 58 b2 3e b1 8a 4b 3f
       0.16748692 0.8551949 0.34832942 0.795085
000300 4f 0f 18 3f f7 3a 41 3e 3d ed 8b 3e 08 93 6f be
       0.5939836 0.1887015 0.27329436 -0.23395932
000310 16 24 07 bf ad 23 50 3f 56 07 b9 be ff 06 35 3e
       -0.5278944 0.81304437 -0.3613841 0.1767845
000320 2d 10 2c 3f ba f8 02 bf 15 ae 20 3e a2 a2 7a 3e
       0.6721218 -0.51160777 0.15691407 0.24476102
000330 1d 21 d4 3d 32 8f d9 3e 72 5e fa 3d cc 6a 30 be
       0.10357878 0.42492062 0.12225045 -0.1722824
000340 fe 17 dc 3e eb 36 3c be 7c fb 2a 3f 76 58 8f 3e
       0.42987055 -0.18380325 0.66789985 0.27997178
000350 1a b8 f2 bb a4 74 cc 3e 7c 48 52 be c3 0c 86 bd
       -0.0074072005 0.3993274 -0.20535463 -0.06545403
000360 82 13 c3 bc b0 0f ec 3e 3f e6 3a 3f e9 eb 9f be
       -0.023813013 0.4610572 0.7300758 -0.31234673
000370 2e 56 a9 be 2f 87 f4 be db 6c a8 3e f2 63 56 be
       -0.33073562 -0.47759387 0.3289555 -0.20936564
000380 49 4d 6d be 51 c3 8d be 0e 5b fb 3d 56 8a 84 3f
       -0.23174013 -0.27688077 0.12273227 1.0354717
000390 e3 57 98 3e 61 b4 a6 be a0 81 0a 3f 2a 34 03 3e
       0.29754552 -0.32559493 0.5410404 0.12812868
0003a0 f3 52 9b be 8d 13 22 bf ba 25 9b 3e c2 6c 6b 3e
       -0.30336723 -0.6331108 0.3030222 0.22990707
0003b0 d1 ca 34 3a 4c b9 7d 3e eb 13 3a bd ec 9d cb 3e
       0.0006896677 0.24777716 -0.04542915 0.39768922
0003c0 d8 1c 44 be 2a ce 45 3e 7c 10 3a be ef 53 0f 3e
       -0.19151628 0.19316927 -0.18170351 0.13996862
0003d0 a8 ae 02 3f 2a ff 92 be ec ff f9 3d 70 c6 90 3e
       0.51047754 -0.287103 0.12207016 0.28276396
0003e0 df 12 8b bd 1b 92 13 be 62 92 36 3f 77 2a 86 be
       -0.06790709 -0.14411204 0.7131711 -0.26204273
0003f0 af 6e fd bd 22 57 30 be 54 e4 15 3f a7 b6 96 be
       -0.12374627 -0.17220739 0.58551526 -0.29436228

policy_network.2.bias f4 [64]
000000 ca ad a5 3d cf c2 3c 3e 31 25 08 be da 52 69 3d
       0.08089788 0.18433689 -0.13295437 0.05696378
000010 78 15 0b bd 2c 9c 3c 3e 16 5b 99 3e 33 d1 b7 3d
       -0.03395602 0.1841895 0.29952306 0.089754485
000020 40 2e 55 3d 7d 7a 5c bd a6 f1 9d 3d 22 38 16 3e
       0.05204606 -0.05382775 0.077121064 0.1466985
000030 29 73 51 3e c8 f0 41 3e ee be 21 3e 08 4e 35 3d
       0.20454086 0.18939507 0.1579549 0.04426387
000040 b7 b0 2f 3e 63 1d 81 3e 46 6b de 3d 2a 30 d0 3d
       0.17157255 0.25217733 0.108603045 0.101654366
000050 2d 52 7e 3e c5 5b f0 3c 66 2a 4c 3d 56 5c 0d 3e
       0.24836035 0.029340634 0.04984512 0.13804755
000060 dc da e5 3d a0 0f 11 3e 35 55 3a 3d 7c 6d e2 bc
       0.11223385 0.14166117 0.045491416 -0.027640097
000070 23 bc 81 3e 59 63 3a bc ed 0b ad 3d 2e 2b c1 3d
       0.2533885 -0.011376225 0.0844954 0.09432064
000080 91 13 71 3e 0b cf 7a 3d 10 52 84 3d 13 fc 3c 3d
       0.2354262 0.061232608 0.06460965 0.046138834
000090 97 fb 88 3e 29 e1 50 3e 1c 08 e2 3c 2a 33 2d 3e
       0.26754448 0.20398392 0.027591757 0.16914049
0000a0 5a 3d c3 3d 89 37 7c 3e c3 c6 1d 3e 4e 50 76 3e
       0.09533186 0.2463056 0.15407853 0.24054071
0000b0 3c ce 38 3e 84 86 97 3e 7c 59 2a 3e 65 57 9f bc
       0.18047422 0.29594815 0.16635698 -0.019450853
0000c0 6b 15 86 3e 61 c1 3d bc 52 60 83 3e c5 61 a5 3d
       0.26188216 -0.01158175 0.25659424 0.08075289
0000d0 82 78 f5 bd 1e 3c bf 3d 45 43 ea 3d 6a 47 52 bd
       -0.11985876 0.09337638 0.11438612 -0.051337637
0000e0 7b d6 99 3d f3 a8 76 3e b7 80 57 3e 81 56 f3 3c
       0.07511612 0.24087887 0.21045195 0.029704334
0000f0 be 0d 90 3e 68 79 1a 3e 74 80 f6 3c 46 e1 39 3e
       0.28135484 0.15085375 0.030090548 0.18152341

mu_head.weight f4 [4, 64]
000000 46 c2 81 bf 86 c3 0e 3f d3 6d f3 3d d2 3b 48 3e
       -1.0137413 0.55767095 0.11886182 0.1955407
000010 43 df 0e bf 18 81 30 3e ef 83 77 be fe a5 d4 3e
       -0.5580942 0.17236745 -0.24171422 0.41532892
000020 30 1c 6b bd 67 43 23 be 42 9e b7 bd dc bb 28 3f
       -0.05739993 -0.1594368 -0.08965732 0.6591165
000030 73 77 8a bd 5a db 4d 3f 1a 77 c6 bd 62 c7 42 3e
       -0.067610644 0.8041283 -0.096906856 0.19021371
000040 03 39 3e bf 2f 4d 16 3f a6 a9 80 be f2 3c e5 3e
       -0.7430574 0.5871152 -0.2512943 0.4477306
000050 e3 8d 4b 3f aa 04 cb be f8 95 fc be 08 6e ca bd
       0.79513377 -0.39651996 -0.49333167 -0.09884268
000060 8d 5e 09 3e 97 4c 15 bf dc 3e 45 bf c6 3f 03 bf
       0.13414975 -0.5831999 -0.7704904 -0.51269186
000070 9e 3b 1c bf 88 3a 45 be d2 28 72 3f af ad d4 3d
       -0.6102847 -0.19260609 0.94593537 0.1038469
000080 9c 46 cc be 9f ce 46 3f 7a 1b dd be 47 83 00 3c
       -0.3989762 0.7765903 -0.43185025 0.007843799
000090 81 a7 b8 be b9 10 82 be ed 2d 9d be ab af 1d bf
       -0.36065295 -0.25403383 -0.306991 -0.61596173
0000a0 fe f9 15 be ec ce 2a 3e 71 71 78 3f 94 c7 46 be
       -0.14646146 0.16680497 0.970481 -0.1941207
0000b0 4d 42 80 bf 02 39 14 bf e3 af 84 bd 8c d3 74 be
       -1.0020233 -0.57899487 -0.0647886 -0.23908824
0000c0 67 78 39 bf 81 7b bd 3d 45 b7 3a 3e 9e f7 50 3f
       -0.72449344 0.09252072 0.18233974 0.81627834
0000d0 46 d6 1d bc 89 33 03 3f 9a 7b 8f be e8 c9 9e bd
       -0.009633606 0.5125051 -0.28023988 -0.07753354
0000e0 fd 16 11 bf 05 b4 03 3f 3e 7c 33 bf 64 1c 6b 3f
       -0.566757 0.51446563 -0.70111454 0.91840196
0000f0 ac b0 ec 3d 31 52 ab 3e f6 bc aa 3e c0 5b 6c 3f
       0.11557135 0.33461145 0.3334729 0.923275
000100 2e 70 2a 3e 1a 03 11 bf d7 e9 8c 3c 20 fd bd be
       0.16644356 -0.5664536 0.017201347 -0.37107182
000110 48 91 dc 3e b7 4f 04 3f c9 db 9e 3f 47 38 8c bf
       0.4307959 0.51684135 1.2410823 -1.0954674
000120 d6 00 af 3f 2f 90 8b 3f ad d1 54 3f 7d 03 9f bf
       1.367213 1.0903376 0.8313244 -1.242294
000130 61 8b b3 bf 42 49 13 3f 98 11 bf be 75 24 47 bf
       -1.402691 0.5753366 -0.3731811 -0.77790004
000140 8e 90 6a 3e e0 4f 0f bf c5 ad 3b bf ef 8c d9 3e
       0.22906706 -0.55981255 -0.73312026 0.42490336
000150 d4 c1 6e bf 00 1a 8e 3e ba e3 f7 3e 10 19 b8 be
       -0.9326451 0.2775421 0.4841593 -0.3595662
000160 08 a3 90 3e 34 19 87 3f 91 06 86 be fe 8d 57 3f
       0.28249383 1.0554566 -0.26176885 0.8420104
000170 18 82 65 bf db 2c 53 3f 55 cc 34 be 46 77 47 be
       -0.8965163 0.8249032 -0.17656071 -0.19479093
000180 eb 37 0c bf 86 51 f7 3e 58 00 dc bd 41 67 51 bc
       -0.54772824 0.48304385 -0.10742253 -0.012780965
000190 d7 ee 89 3e 94 65 1a bf 0a 1d 0e 3e af 31 a6 3e
       0.26940033 -0.60311246 0.13878265 0.3245978
0001a0 0e 87 c0 bd e2 a0 58 bf 33 42 a1 be 90 6c 17 bf
       -0.0940076 -0.8462049 -0.31495818 -0.5915003
0001b0 15 01 a3 be 28 29 b7 be 23 8c 1c be ad fe 22 3f
       -0.31836763 -0.35773587 -0.15287833 0.63669854
0001c0 1f 25 32 bf 09 51 a7 bd e2 b3 ac 3e 0e 68 26 3f
       -0.6958789 -0.08169753 0.3373099 0.65002525
0001d0 64 b5 1c be ff ac c8 3e 64 01 32 bf 73 52 c8 bd
       -0.1530357 0.39194486 -0.6953337 -0.09781351
0001e0 04 62 25 bd b3 69 b9 bd e7 0f 32 3f b8 77 08 3f
       -0.040376678 -0.09053364 0.69555515 0.53307676
0001f0 67 f0 fd 3e cd cb 3e bf 0d eb f0 3e dd 1d ae 3e
       0.49597475 -0.74529725 0.4705433 0.3400716
000200 85 b3 72 3e 94 d4 7f 3f 93 c6 a5 bc 42 d9 5c 3f
       0.23701294 0.99933743 -0.02023629 0.8626901
000210 d5 43 08 3e da 8d 55 bf 58 bb 0e 3f fe de c1 be
       0.13307126 -0.83419573 0.55754614 -0.37865442
000220 69 b3 0f bd f1 37 f7 be 2f bc 2f bf bf a3 81 bd
       -0.03508321 -0.48284867 -0.6864652 -0.0633006
000230 7c e3 69 be ef 64 3f bf 59 65 86 bf 10 23 94 bf
       -0.22840685 -0.7476339 -1.0499679 -1.15732
000240 66 04 a0 3f 3b be 18 be 57 62 9c 3f f7 eb 41 bf
       1.2501342 -0.14916317 1.2217511 -0.7575068
000250 73 1d 17 bf 1a 87 82 3f c8 df af bf cc 81 b3 bf
       -0.5902931 1.019748 -1.3740168 -1.4023986
000260 6f 84 a7 bf fa bd 76 be 3a 61 1f bf 77 fa 9d 3e
       -1.308729 -0.24095908 -0.6225773 0.30855152
000270 da 59 d3 3e df ee 5d 3f bb 82 6c bf 90 90 be 3f
       0.4127949 0.86692613 -0.9238698 1.4887867
000280 f9 62 b5 3e d2 cb 3a 3f b1 1b a9 bf 96 6e b9 bd
       0.35427073 0.72967255 -1.3211576 -0.09054296
000290 57 e1 98 bc 6c 07 98 bf 0e 93 72 3f 0e 26 89 3f
       -0.018662138 -1.1877265 0.9475564 1.0714738
0002a0 ee 35 c8 bf 5e 72 8b 3f 7d 5f 4f 3e d3 d3 48 3f
       -1.5641458 1.0894277 0.2025127 0.7844822
0002b0 6e 3f d8 3e 6f 79 8c 3f 54 ac 94 bf ef 42 5f be
       0.42235893 1.0974559 -1.161509 -0.21802877
0002c0 8d 56 94 be a4 a9 86 3c c3 64 9d bf ce 5c 71 bf
       -0.28972283 0.016438313 -1.2296375 -0.94282234
0002d0 7e af 37 3d 71 db c7 bf 5b 8f 0c bf e7 85 65 3d
       0.044845097 -1.5613843 -0.54906243 0.056035902
0002e0 25 5a 48 3f 45 0d 9b 3f 79 f9 a0 be 85 d4 44 bf
       0.7826255 1.2113425 -0.31440333 -0.7688678
0002f0 21 67 5f 3f 88 d2 10 bf 34 04 94 3f 53 48 bc 3e
       0.8726674 -0.56571245 1.1563783 0.3677393
000300 18 d6 a9 3e 8c a3 06 bf e3 78 ae bd 8c cc b9 3f
       0.33171153 -0.525933 -0.08519151 1.4515548
000310 b0 92 22 be bf 22 d9 bf 7f 1f ae bf 12 dd 72 3f
       -0.1587627 -1.6963729 -1.3603362 0.94868577
000320 50 3d 95 be 7a e2 29 3f 2b d5 92 3e b1 61 82 3e
       -0.2914834 0.663612 0.2867826 0.25465158
000330 10 50 ee 3f 30 07 55 3e 7e 14 7d bf b8 82 a0 3f
       1.8618183 0.20803523 -0.98859394 1.2539892
000340 a1 e6 17 bf e6 1c 88 bf b6 ae 36 3f 71 06 d8 bf
       -0.59336287 -1.0633819 0.7136034 -1.6876966
000350 b2 e1 8a 3d 2a 86 96 3f 94 c6 71 be e5 2f 7b 3f
       0.06781329 1.1759694 -0.23610908 0.98119956
000360 03 d0 84 3f 84 ec 0d bf 85 97 31 3f 67 28 24 3f
       1.037598 -0.5543902 0.69371825 0.6412415
000370 5d 0f 8a be b9 03 67 3f 12 75 16 3f 9e bf fd be
       -0.26964846 0.90240055 0.58772385 -0.49560255
000380 79 80 9a bf 95 1e f5 3b 71 e3 44 3f 9a ee 8d 3b
       -1.2070457 0.0074804523 0.7690955 0.004331422
000390 05 31 00 c0 94 36 26 be 68 90 6a 3f ed fa 0a 3f
       -2.002992 -0.16231757 0.91626596 0.5428913
0003a0 c5 ab 8c bf 78 43 62 bd ec 92 bc 3e b5 fa 6c bf
       -1.098992 -0.055240124 0.36830842 -0.9257005
0003b0 00 af a2 be 42 ab 29 bf d8 c8 b2 bf a5 3c 9f 3f
       -0.3177414 -0.66276944 -1.3967543 1.2440382
0003c0 12 44 bd be cc 40 f7 3c 2f 48 bd bf 4c 2c d8 bc
       -0.36965996 0.030182265 -1.4787654 -0.02638831
0003d0 4a 02 a6 3d fd 93 74 bf ef 49 97 3f bd f5 e2 bc
       0.08105905 -0.9553831 1.1819438 -0.027705068
0003e0 12 74 9e 3f d8 7c 60 3e 6d 7d fc be 62 99 0a 3f
       1.2379172 0.21922624 -0.49314442 0.54140294
0003f0 99 ed b0 bf b6 8a b8 3f 67 78 47 3f 4e 23 89 3e
       -1.3822509 1.4417331 0.77918094 0.26784748

mu_head.bias f4 [4]
000000 3a b3 8b bc 9e 97 35 3d 01 77 11 3e f5 63 e9 bc
       -0.017053235 0.044334047 0.14205553 -0.028490046
