notebooks/Reacher-PPO/critic.pth (torch, 53349 bytes, 5 tensors)

value_function_network.0.weight f4 [128, 33]
000000 07 58 c1 bc 10 17 5d 3d 51 5c 40 3d e1 6d 1b bc
       -0.023601545 0.053977072 0.04696304 -0.009486646
000010 86 2f ba bc 58 16 33 3f 09 16 f9 3d fe 12 70 be
       -0.022727739 0.6995597 0.12162406 -0.23444745
000020 7d e7 b2 3c 73 0d 02 3e de 6a 9e bd 37 ba e9 bc
       0.021838898 0.12700443 -0.07735227 -0.028531177
000030 88 16 14 bc 45 71 4b 3e 48 b1 0f 3d cb f3 71 3d
       -0.009038575 0.19867428 0.035081178 0.05907039
000040 8c b4 8f 3c d7 92 21 bd 73 9f fb 3e 61 65 e4 3d
       0.017542146 -0.039446678 0.49145088 0.11152149
000050 7e f5 eb 3c 76 58 b8 3c a9 4f b3 3d 0c f3 18 be
       0.028803583 0.022503119 0.08755428 -0.14936465
000060 ec d2 28 bd 93 83 e6 bd 7c b0 45 3d ce c4 43 3e
       -0.041216776 -0.112555645 0.04826401 0.19118044
000070 68 64 0b bb b2 34 20 3c 51 3f fe bc eb 2f ec bc
       -0.0021269564 0.009778189 -0.031036051 -0.028831443
000080 42 2f 9f bf 18 45 c2 3d 21 56 30 bd 4c 38 7f 3d
       -1.2436297 0.09485835 -0.04305089 0.06230955
000090 7c af 7a be 68 3b 09 3e 22 5e 35 be 7b ed e7 3d
       -0.24481004 0.13401568 -0.1771169 0.11324593
0000a0 3c a8 8f bd c8 77 9e be 75 34 cc 3d ee d3 b7 3d
       -0.0701451 -0.3095076 0.09970943 0.08975969
0000b0 bc d0 86 bc 25 bf 0a 3e 6e b7 06 be ba c4 f2 3d
       -0.016456954 0.13549478 -0.1315591 0.11853929
0000c0 fa 87 5a 3c 06 4f 8c be 56 31 87 3e bf 3a b0 bd
       0.013338083 -0.2740404 0.26404828 -0.08604955
0000d0 a6 e8 e7 3d 04 7a 5f bb d2 1c c8 be 34 77 b0 bd
       0.11323671 -0.0034099827 -0.39084488 -0.08616486
0000e0 3b 38 30 3e 0a e0 0b be a7 05 ca 3d 51 9f d2 3c
       0.1720895 -0.13659683 0.09864359 0.025710734
0000f0 c4 0e 81 3e 6d b4 23 be af dc 1d be 34 b8 91 be
       0.25206578 -0.15986796 -0.15416215 -0.28460848
000100 4d eb 8c 3d 4a 84 02 bf eb 0b a5 be 7f a8 13 3e
       0.068808176 -0.5098311 -0.32235655 0.14419745
000110 48 c5 4c 3c 05 e5 b9 bd 5f 5f 8c bd a7 db b3 be
       0.012498207 -0.09076885 -0.06854128 -0.3512852
000120 81 53 e3 bd 28 3c f4 3d 62 3b 69 3d c4 a8 b3 bd
       -0.110999115 0.119255364 0.056941397 -0.08772424
000130 09 1a 31 bd 16 c6 d3 bd b5 37 ad 3d 33 1b 9e bd
       -0.04323772 -0.10340516 0.08457891 -0.077200316
000140 1b 2e 11 3d dc 14 47 be fd 54 c3 be 54 3c 28 3f
       0.03544436 -0.19441551 -0.38150778 0.65717053
000150 71 da 63 be 8e c5 f5 3d cf 9e 62 3c f8 a3 07 3d
       -0.22251298 0.12000571 0.013831808 0.033115357
000160 08 59 a7 bd 7c 90 02 be 42 48 ad bd a3 cd 02 3e
       -0.08171278 -0.12750429 -0.08461048 0.12773757
000170 57 7c 91 3d 8b 3c 55 3e f2 fc c7 bd e7 3f e6 bd
       0.07103794 0.20823877 -0.09765042 -0.11242657
000180 f2 c7 9e bd 86 68 ec bd d2 3f 23 3f 59 c5 bc 3e
       -0.0775298 -0.11543374 0.6376926 0.36869314
000190 87 8d c0 3e 63 95 4a 3e e7 19 9e be da a7 3d 3e
       0.37607977 0.19783549 -0.30879137 0.18521062
0001a0 89 f3 1a bd 3d 6d 45 3e 67 7f 18 be 02 d5 db be
       -0.03782991 0.19279952 -0.1489235 -0.4293595
0001b0 b8 9b 98 bd 13 33 4a bd f1 4d e9 3d 6e 4c fa bd
       -0.07451576 -0.049365114 0.11391819 -0.12221609
0001c0 74 14 2c 3e fc 1a 73 3d 8f 69 56 3d ee 6b 38 be
       0.16804677 0.059351906 0.052346762 -0.18009922
0001d0 f9 bb e1 bd c3 42 d7 be 1e 0f d7 bc b8 fd 19 bc
       -0.11022181 -0.42043123 -0.026252326 -0.00939887
0001e0 7a f1 e5 3d 21 c6 b4 bd b9 6d 0d be ad ba 39 3e
       0.112276986 -0.088268526 -0.13811387 0.18137617
0001f0 69 cd 8e bb 1e 0e 2d be 9b 8f 97 3e 6e e2 58 3d
       -0.004357983 -0.16899917 0.2960175 0.052950315
000200 d4 08 08 3e 1a f5 1e be de d7 34 3d 39 cf 03 3f
       0.13284618 -0.15523186 0.04415118 0.5148807
000210 57 df 82 3e 8b 82 98 3d 57 06 56 3e cf 45 cf 3c
       0.2556102 0.07446774 0.20900856 0.025301842
000220 27 6d 82 bd 2f 46 85 be 27 17 e9 3d c2 49 08 3d
       -0.063684754 -0.26030108 0.11381369 0.033273466
000230 78 8e b4 3e e3 df a1 bd 43 81 9c bd 61 35 4c bd
       0.35264945 -0.07904031 -0.07641842 -0.049855594
000240 f6 d2 04 bd a0 78 a7 3e 8d ec 9d bd a4 8f 11 be
       -0.03242775 0.32709217 -0.07711134 -0.14214951
000250 a8 2b e5 be 99 bc cc bf eb 80 b8 3e 87 d1 a5 3e
       -0.4475987 -1.5995055 0.36035857 0.3238642
000260 62 6c 84 bd f6 df b2 3e f5 42 b0 bd de 4a 42 bc
       -0.06465985 0.34936494 -0.08606521 -0.01185867
000270 1f c7 f3 bd b3 61 08 be ec 8f ce bc 59 96 0b 3e
       -0.11903214 -0.1331852 -0.025215112 0.13631572
000280 e2 81 15 3e 29 88 07 bd 59 2d c9 bd 6f aa ca 3d
       0.14600328 -0.033088837 -0.098231025 0.09895789
000290 28 bb d3 be 5e da 84 3c 85 9d e6 3d 8e 55 3a be
       -0.41353726 0.016217407 0.11260513 -0.18196699
0002a0 e7 7c 5a bc 08 1a 03 be c9 ab 5b be 7e f8 5c be
       -0.013335443 -0.12802899 -0.2145225 -0.21579167
0002b0 78 33 38 be 92 c2 15 be 8b 76 61 3c d3 f1 b9 bc
       -0.17988384 -0.14625004 0.013761173 -0.022698319
0002c0 82 8a ba 3d 94 00 3f bd 1c ee a9 bd 07 85 a9 3e
       0.091084495 -0.04663141 -0.08297369 0.33109304
0002d0 67 3e 3e be 2f 74 02 bd 41 4a 9d 3d d1 af b9 3e
       -0.18578492 -0.031849083 0.076801784 0.3626695
0002e0 03 62 f7 be 4e 7c ed bd 60 e8 34 be 7a 64 cd bb
       -0.48316965 -0.11595975 -0.17666769 -0.0062680813
0002f0 09 e8 05 be 35 6b e2 3b 0d b9 04 3e 34 b0 fa bc
       -0.13076796 0.0069097527 0.12961216 -0.030601598
000300 81 1d 06 3e 9c 81 52 3e 25 a6 8b bd b6 89 af 3c
       0.13097192 0.20557255 -0.06818799 0.02142797
000310 38 bc 12 bd d5 16 3a 3e f6 b7 c1 3d e9 cf f7 3d
       -0.03582403 0.18172772 0.09458916 0.121002026
000320 86 ec 1e be 75 1f d0 3d 99 da 60 3e fd aa 6c 3d
       -0.15519914 0.1016225 0.21958388 0.057780255
000330 65 83 49 bc 8e cc 88 be 40 c6 b8 3c 35 4e 15 3d
       -0.012299393 -0.26718563 0.02255547 0.036451537
000340 32 a5 02 be 85 6e 63 bc 06 b3 63 3d 41 1e 1e 3e
       -0.1275833 -0.01388133 0.055590652 0.15441228
000350 de c3 c1 bc 2e f4 1d bd 07 f0 c5 3e 4a 07 ab bd
       -0.023652967 -0.038562946 0.3865969 -0.08351
000360 83 12 06 3e db 4a b5 be d8 21 c8 3d 90 77 f4 bd
       0.13092999 -0.35408673 0.0977208 -0.11936867
000370 04 1a 01 bd ef 5b 3c be 26 2e eb 3d 6c d1 da 3c
       -0.03151895 -0.18394445 0.114834115 0.026711188
000380 2b bd a8 bd fb 6f 01 3d 48 f3 ba 3c 17 26 17 3d
       -0.08239206 0.031600934 0.022821084 0.03690156
000390 2e b3 65 be 5c 93 2f be a7 f2 44 bf ea 39 05 3e
       -0.22431633 -0.17146057 -0.7693276 0.13010374
0003a0 d1 37 d3 bd 7f 8e 05 3e c8 2c 30 be f4 32 39 3d
       -0.103133805 0.13042639 -0.17204583 0.04521461
0003b0 af ff 29 bf 79 04 28 3e 56 c2 92 3d 3f 0b bb be
       -0.6640577 0.16407956 0.07165973 -0.36532018
0003c0 6e 48 d3 bb aa 4c da 3d 6f 2c 8c 3d 2e 83 b3 3c
       -0.0064478433 0.10659154 0.068444125 0.021913137
0003d0 31 d1 f4 be 98 2d 68 3d bf fb 03 be 77 44 80 3d
       -0.4781585 0.056684107 -0.12889002 0.06263059
0003e0 cd a8 01 bf 72 e4 f2 be 6c e4 12 3f c3 fb 3f bd
       -0.50648195 -0.47439915 0.57379794 -0.046870958
0003f0 e9 0f 95 bd 71 e2 31 3c e1 6e 4a 3e 84 4e 27 bd
       -0.07278425 0.0108572105 0.1976886 -0.040846363

value_function_network.0.bias f4 [128]
000000 2c af 8c be 7e 06 d3 be 32 d2 a1 bd 2b dd 04 be
       -0.27477396 -0.4121589 -0.0790142 -0.12974994
000010 0a 26 3a be 93 ab 69 3d ac 0f 64 3d bf 74 a0 bc
       -0.18178573 0.05704839 0.05567901 -0.019586919
000020 b9 4b 9e 3c 7b 07 57 bd 3b 51 62 be c5 3b 7a be
       0.019323217 -0.05249737 -0.221013 -0.24436863
000030 ba c5 23 be 35 6d cd bd 6e c5 ca bd 49 27 f4 bc
       -0.15993395 -0.10030595 -0.09900938 -0.029803889
000040 11 87 ae 3d 8a 0a 35 3c 60 c1 4d 3d 41 20 94 bd
       0.085218556 0.011049876 0.050233245 -0.072327144
000050 04 24 0b 3e b9 b6 49 bd 9a 2b 03 3b d1 63 3b bd
       0.13587958 -0.049246524 0.0020015002 -0.04574949
000060 14 03 a3 be 52 1f 2d bc be 30 07 3d 7f e7 b1 be
       -0.31838286 -0.010566549 0.03300547 -0.3474693
000070 a9 44 30 3d f6 52 9c bd 94 ee 0b be b8 a3 24 be
       0.04303423 -0.07633011 -0.13665229 -0.16078079
000080 61 d0 c1 bd 24 f4 2a 3c 2d ec 61 be 2d e1 14 3e
       -0.09463573 0.010434184 -0.2206275 0.14539023
000090 9a b0 b3 3d 07 16 be bd 2d b5 0a be e2 0e 25 be
       0.087739184 -0.09281545 -0.13545676 -0.16118959
0000a0 07 f8 a1 3b 33 93 73 be 41 d8 e4 bc b4 ac 86 bd
       0.0049428972 -0.23786621 -0.02793515 -0.06575909
0000b0 dc 5f 15 be b4 41 9d be c4 0a 7a be 36 c8 05 bc
       -0.14587349 -0.3071419 -0.2441817 -0.00816541
0000c0 88 01 06 bd 3f 9e 23 be 2a 43 7e be e1 bd a1 be
       -0.032716304 -0.15978335 -0.24830309 -0.3159018
0000d0 47 76 a3 3d c1 8d 94 bb 9f 56 4e be 71 60 93 bd
       0.07981544 -0.0045335 -0.20150231 -0.07196129
0000e0 3e ab d6 b9 c9 9c 3e be c1 ed 85 bc e8 5a 65 be
       -0.00040944846 -0.18614496 -0.016348721 -0.22397959
0000f0 ed 34 88 be 90 dd 77 be 1d 35 c8 3b 65 8f 48 bd
       -0.2660288 -0.24205613 0.006109847 -0.048964877
000100 1c bf e6 bc 2b a1 94 bd b7 75 1d 3d e3 7e 14 bd
       -0.0281673 -0.07257303 0.03844234 -0.03625382
000110 86 d1 27 be 1d d2 e1 bc 9e ad 7b bd 97 e1 9a 3d
       -0.1638852 -0.02756601 -0.06144487 0.07562559
000120 1d 1c 90 bd af 9f 8c bc d7 78 2a be 13 16 28 bd
       -0.07036612 -0.017165987 -0.16647659 -0.041036677
000130 e8 88 b0 3b 56 59 98 be 64 5a 13 be 68 73 3e be
       0.0053874142 -0.29755658 -0.1438995 -0.18598711
000140 2e b3 17 3e a0 02 c2 bd 67 58 61 bd 0c 15 34 3d
       0.14814445 -0.09473157 -0.055015948 0.043965384
000150 2c b7 ef bc 99 fc 0a bd 52 8a 9f be 9f cf 32 be
       -0.029262148 -0.033932302 -0.31160218 -0.17462014
000160 04 70 b1 bd 7c c2 87 3d c4 ea 0d be 57 51 41 be
       -0.086639434 0.06628892 -0.13859087 -0.18878685
000170 cc 13 0d be f7 4c 31 be d8 ef 86 be 0a 9d 61 bd
       -0.13777083 -0.17314516 -0.2635486 -0.055081405
000180 ec 59 97 be ac 5c 9c be f5 3d 50 3d 65 3d 2b be
       -0.29560792 -0.30539453 0.050840337 -0.16722639
000190 71 a8 85 3d b8 28 45 be 67 a6 9d be e2 9f 89 be
       0.06526268 -0.19253814 -0.30791017 -0.26879793
0001a0 b5 14 01 bd 00 29 90 be 0a 8a 1e be 07 b1 45 3d
       -0.03151389 -0.2815628 -0.15482345 0.04826453
0001b0 7e b8 39 be 47 c5 7e bd be bf 10 be 78 d4 99 be
       -0.18136784 -0.062199857 -0.14135644 -0.30044913
0001c0 b1 8a 21 be aa cf 3e be 31 b6 ab bc 69 fa 87 be
       -0.15775563 -0.18633905 -0.0209609 -0.26558235
0001d0 9b cb 3e bd 3a 6e 6d bd 79 b6 73 bd e8 27 c3 3c
       -0.046580892 -0.05796645 -0.05950019 0.02382274
0001e0 70 9c 51 be e7 3d 8a 3d ef c1 0e be f2 df a3 be
       -0.20469832 0.06750088 -0.13941167 -0.32006794
0001f0 f2 73 2e 3d 15 a8 8b 3d 44 33 05 3d 98 be 00 be
       0.042591043 0.068191685 0.032519594 -0.12572706

value_function_network.2.weight f4 [64, 128]
000000 16 17 c4 3c ec ab aa 3d b3 66 9d 3c f0 ab 30 3e
       0.02393679 0.08333573 0.01921401 0.17253089
000010 48 d0 3f bd 52 c1 6d bd d1 81 c0 bd 55 c5 3d 3e
       -0.04682949 -0.058045693 -0.093997605 0.18532307
000020 06 1c 19 be 5c 00 ac 3b 72 f9 71 3d 63 0a ad bd
       -0.14952096 0.0052490663 0.05907578 -0.08449247
000030 8a 9d a3 bd cd d8 33 3d f2 52 5c bd dd 8c b6 3d
       -0.079890326 0.04390793 -0.05379004 0.08913586
000040 77 9f 98 bd 26 00 a6 bc 1d 94 18 be 81 0b e5 bc
       -0.074522905 -0.020263743 -0.1490025 -0.027959587
000050 d6 56 1c bd 00 d3 8a bd 83 d6 2f 3d 2c 16 88 bd
       -0.03816875 -0.06778526 0.042929184 -0.06644854
000060 6f d1 b8 3d 7d 29 a7 bc bf a7 a7 3d ac ef 2d 3d
       0.09024321 -0.020405525 0.08186292 0.042464897
000070 11 25 ab 3d e4 ba 8d be 89 4c fb bb 36 9e d9 3c
       0.08356679 -0.2768165 -0.007669036 0.026564699
000080 66 bf 01 be 73 2e 5c bc 39 04 97 3d 44 ea a4 be
       -0.12670669 -0.013438809 0.07373852 -0.3220998
000090 ae 53 01 3b 4c 0b 6f be 1f c0 5d 3c fd 59 eb bd
       0.0019733715 -0.23344153 0.013534575 -0.11491773
0000a0 39 78 89 3d 33 07 c9 3d a0 73 1d bd 52 68 84 3d
       0.06712384 0.09815826 -0.038440347 0.0646521
0000b0 f3 41 ac be 33 5a 88 be de 8f 05 3e 3e 67 97 3d
       -0.33644065 -0.26631317 0.13043162 0.07392739
0000c0 e4 fe 3a bd 71 16 b7 bd 32 fd d2 3c 93 16 c8 3d
       -0.04565324 -0.08939827 0.025755499 0.09769931
0000d0 0e 89 8c bc 0d d4 11 3d b5 34 c2 bd 27 a2 e3 bd
       -0.017155197 0.035602618 -0.09482709 -0.111149125
0000e0 26 ec b4 bc b8 17 21 bb 83 4d 11 3e 5b 0a f6 bc
       -0.02208526 -0.0024580788 0.14189725 -0.030034235
0000f0 1f c2 fd 3c 76 2e 08 be 07 de a5 bd 69 e8 19 3d
       0.030976353 -0.13298973 -0.08098989 0.03757516
000100 2e 36 a0 3e 0e bf bf 3d aa e0 4f 3e 89 5b 0c bc
       0.31291336 0.09362613 0.20300546 -0.008566746
000110 e4 b9 a7 3d 6f 19 3b 3e e4 6f 8a bd bf 3e c1 3e
       0.08189753 0.18271421 -0.06759623 0.37743184
000120 9c 7d 3d 3c 61 0f 85 3d 03 fc 35 3d b4 81 ff 3c
       0.011565592 0.06497074 0.04442979 0.031189777
000130 60 37 be bc a0 45 f4 bc c7 b9 f7 3b 25 1d c5 bd
       -0.023219764 -0.029818356 0.007559988 -0.096246995
000140 0d 8d 29 bd dd a0 15 3d 20 28 30 bd 1c 45 eb bd
       -0.041394282 0.036530364 -0.043007016 -0.11487791
000150 1d fe 04 bd a9 0b bd 3d 8b 55 67 be 27 d9 5b be
       -0.032468904 0.092307396 -0.22591226 -0.21469556
000160 76 e5 97 bd aa 81 03 bd cc b9 fd bd 05 be 3e 3e
       -0.07416813 -0.03210608 -0.123889536 0.18627174
000170 01 84 59 3e bf 99 0c 3e ba 6f 81 3d f9 85 4c bc
       0.21241762 0.13730524 0.06320138 -0.012483113
000180 e4 ed 68 3b b9 de ee bd fa 48 55 3d fc 23 44 3c
       0.0035542184 -0.11663575 0.05207155 0.01197147
000190 3c 3c c2 3d d7 b4 cc bc 81 c8 72 bc d8 69 5d 3d
       0.09484145 -0.024988575 -0.014818312 0.05405602
0001a0 4c 15 83 bd ce 8a b2 3c d1 9e 04 be a9 e6 56 bd
       -0.064005464 0.021794703 -0.12951209 -0.05246607
0001b0 69 7e b2 3d ec fb b4 3c 29 c0 20 3e 2a 3e 10 3d
       0.08715517 0.022092782 0.15698303 0.035215534
0001c0 34 21 99 bd d9 e3 12 3e ef 0b a3 ba 19 5b f9 3d
       -0.07477036 0.1434473 -0.001243947 0.121755786
0001d0 cf ef 43 3e d9 a6 c7 bd 13 f4 60 3d 87 a7 02 3e
       0.19134448 -0.097486205 0.054920267 0.12759219
0001e0 14 87 c8 bd 2f 01 a1 bd b2 a9 f8 bd 6d 1e eb ba
       -0.09791389 -0.07861554 -0.12141742 -0.0017938145
0001f0 78 00 e5 bd 90 2a 4e 3d 67 61 b5 3d 0f 5a 6d be
       -0.1118173 0.05033356 0.08856469 -0.23178886
000200 63 21 86 3c 35 96 cb bc 5d 80 76 bd 27 02 83 3d
       0.016373342 -0.024851898 -0.06018101 0.06396895
000210 65 bc 2f 3d fa 81 57 3b b3 7d 8a bd 56 85 88 bd
       0.042904276 0.0032883869 -0.067622565 -0.06666057
000220 7e 8d 49 3c 7f 6e de 3c 11 e3 7d bd 1e b7 c5 bd
       0.012301801 0.027152298 -0.061984126 -0.096540675
000230 54 48 4b 3d 30 e9 3b 3d f3 77 0e 3d 47 dc 63 3a
       0.049629524 0.04587668 0.03478236 0.00086921867
000240 cb 33 86 bd 20 c5 d7 bd 93 5b d1 bd 51 56 ac bd
       -0.065528475 -0.105356455 -0.102225445 -0.08414901
000250 ca f3 9c bc 56 bb de 3b 6f 0c 62 bd 0d 02 fd 3b
       -0.019159216 0.0067972345 -0.05518764 0.0077211917
000260 8b b9 15 3c 81 9f 9a 3a fd 2c e9 bd 24 15 5d bd
       0.009138475 0.0011796803 -0.11385534 -0.05397524
000270 f6 a0 04 be e6 2d d0 3c 89 e3 a1 bc 9c cf 57 bd
       -0.12952027 0.025412511 -0.019761818 -0.052688226
000280 a5 3b 68 3c 33 75 b8 3c 7c 8d 99 bd 17 18 dd bd
       0.014174377 0.022516822 -0.07497689 -0.107956104
000290 dc 8e 8b bd 69 6a 9a ba e1 80 08 be dd a4 47 3d
       -0.06814358 -0.001178098 -0.13330413 0.04874121
0002a0 22 3d 00 be f7 11 5c bd a1 64 27 3d b8 fa 63 bd
       -0.1252332 -0.05372807 0.04086745 -0.055659026
0002b0 6c cc 3a 3d 38 1a 83 bd 65 a7 26 3d 93 bc 84 3c
       0.04560511 -0.06401485 0.040686984 0.0162032
0002c0 9a ed 79 3d ee b7 98 3c 36 97 b3 bd 8c ee 01 bb
       0.06101761 0.018642392 -0.087690756 -0.0019826023
0002d0 2d 0f 17 3d 24 25 89 bd 08 5d f4 3c c0 c7 42 3d
       0.036879707 -0.06696537 0.029829517 0.047553778
0002e0 c5 be d6 3c 2e c4 a7 bd 28 e4 7e 3d 71 06 62 bb
       0.026214013 -0.08191715 0.062229306 -0.0034488703
0002f0 d3 26 1b ba 01 cc b3 bd 2b 40 0d 3d 7d db 96 bc
       -0.0005918566 -0.08779145 0.034485023 -0.018415207
000300 a6 43 51 3d 6d 59 13 bd 86 13 f0 bd 5b a7 cc bd
       0.051089905 -0.035973955 -0.11722474 -0.09992858
000310 8e 76 d0 bd a2 34 b3 3c 98 b0 81 bd 08 28 5d bd
       -0.101788625 0.021875683 -0.06332511 -0.053993255
000320 6d 14 41 3d f8 0c c1 bd e0 14 e9 bc 68 09 f5 bc
       0.04713862 -0.09426302 -0.028452337 -0.029911712
000330 a3 5d 19 bd 71 8b 6b bc 2f 61 0c be 29 f3 19 be
       -0.037442815 -0.014376507 -0.13708948 -0.15034164
000340 9e 0e 89 bd 0d 93 c1 bd f6 38 be ba 0a c6 fd bd
       -0.06692241 -0.09451876 -0.0014512825 -0.123912886
000350 7f 7f 3b 3d 3f 2f 4d bd 76 60 61 bd 17 52 c7 bc
       0.045775887 -0.050093886 -0.055023633 -0.024331136
000360 45 26 c8 bc 3d b3 3d bd 0a e0 39 bc d2 28 75 3d
       -0.02443231 -0.046313513 -0.011344919 0.059853382
000370 e8 09 3e 3d 62 23 c1 bd 99 32 87 3d cb de bc 3c
       0.046396166 -0.09430577 0.066014476 0.023055455
000380 7e 0e eb 3b 25 b2 b5 3d 17 a1 8e 3d 2e ab 0f 3d
       0.0071733585 0.08871869 0.06964319 0.03507536
000390 ad b7 d4 bc f8 9d d5 bd 07 bb 01 be 45 1b 8d 3d
       -0.02596649 -0.10430521 -0.12669002 0.06889967
0003a0 23 f9 53 3d a3 11 e3 bd ce 1b b4 3c 88 d8 45 bd
       0.051751267 -0.11087348 0.021985915 -0.048302203
0003b0 fb 78 cd 3c a7 e9 a0 bd 0e 2b 30 bd 98 2d 23 3d
       0.025082102 -0.07857066 -0.04300981 0.039838403
0003c0 bc 68 04 be 21 93 4d bc e7 bd 62 bd 00 81 a1 3c
       -0.12930578 -0.012547285 -0.055356886 0.019714832
0003d0 a7 31 7e 3d a3 8d 97 3c 46 52 71 ba 9e 57 7f 3b
       0.06205907 0.018500155 -0.000920568 0.0038962136
0003e0 70 4a 3b bd 00 54 bb bd 26 51 fe 3c f6 c2 ba bd
       -0.045725286 -0.09146881 0.031044554 -0.09119217
0003f0 94 70 86 bd 4d 55 90 bd 1b 2a e8 bc 53 b7 97 bb
       -0.06564441 -0.0704752 -0.02834039 -0.0046300082

value_function_network.2.bias f4 [64]
000000 7e bd 14 be 1f e4 d3 bd 9c 24 80 bc a4 da 84 bd
       -0.1452541 -0.10346245 -0.015642457 -0.06487015
000010 ad e6 aa bd 1b 8d 12 bd 3d d7 f1 3b 35 01 d5 3d
       -0.08344779 -0.0357791 0.0073803947 0.10400621
000020 90 8e 88 be 38 eb 18 bd 99 ab f8 bb 7c e6 d2 3d
       -0.26671267 -0.037333697 -0.0075888154 0.10297868
000030 27 ee 1a be 2b 94 2d 3e 7e d9 4e bd fa f1 fe bd
       -0.1512991 0.16951053 -0.050500385 -0.12448497
000040 d8 29 21 bd 51 8b 01 3e 6f 77 8a bd 89 0b 00 3d
       -0.039346546 0.12650801 -0.067610614 0.031261
000050 49 c9 be 3c d4 0e a5 bd f5 5b 0d be 1f 02 1c be
       0.02328934 -0.08059469 -0.1380461 -0.15235184
000060 f2 e1 f5 bc f6 b3 c5 bc 35 07 f2 bc 33 bc 55 be
       -0.030014966 -0.024133664 -0.029544452 -0.20872574
000070 45 78 63 3d bc 98 3c be 6c 4d cb 3c fb 9a 0e 3e
       0.05553462 -0.18417639 0.024817191 0.13926308
000080 b0 55 37 be 21 82 a1 bd a0 7d 85 bd 80 07 3c 3e
       -0.17903781 -0.07886148 -0.06518102 0.18362236
000090 cc 23 cc 3c 47 17 8e 3d cb da 8e bd 62 10 49 3d
       0.024919413 0.069380336 -0.06975325 0.04908789
0000a0 fe de 3b be 2a 54 8a 3e e4 d8 2d bc ec 06 5e 3c
       -0.18346784 0.27017337 -0.010610793 0.013551455
0000b0 0b 0f 21 be 6a c3 6a 3d 81 c6 77 bc ad b2 2b 3e
       -0.15728395 0.057315268 -0.015123011 0.16767378
0000c0 2e e3 e2 bd ae 5b 2f bd ac be 12 3c bf cd ca 3d
       -0.11078487 -0.042812042 0.0089565925 0.09902524
0000d0 92 c3 ba bd 4c 24 5c be 4e ab 58 bd 6c 28 1a be
       -0.09119333 -0.21498221 -0.052897744 -0.15054482
0000e0 ba 8f ae bd 10 2a 35 3e af 1c 3d be 35 00 2a be
       -0.085235074 0.17691827 -0.18467973 -0.16601641
0000f0 c5 d3 9c 3d 5d 5d 9d 3d b2 b2 06 be 8a be 08 3e
       0.07657579 0.07683823 -0.13154104 0.13353935

value_function_network.4.weight f4 [1, 64]
000000 f9 25 b2 bc 09 bb 74 3d e3 46 0d 3e 0b 25 c7 bd
       -0.021746622 0.059748683 0.13796572 -0.09723862
000010 8b d0 19 bd a0 b1 9b 3b bd 12 2e bd f6 f7 6f 3e
       -0.037552398 0.004751399 -0.04249834 0.23434433
000020 9c dd 9f bd e4 c7 82 be 52 b1 97 3c 86 4d ab 3d
       -0.078059405 -0.2554313 0.01851717 0.08364396
000030 4c 58 66 bd 50 f8 45 3e b7 c3 d5 bb 66 07 db bc
       -0.05623655 0.19333005 -0.006523575 -0.026736926
000040 64 02 d5 be 96 c7 d5 3e c4 0b 5c bd 49 67 9c 3e
       -0.41603386 0.41753834 -0.053722158 0.3054755
000050 75 ae e8 3d 3d 9b 16 bd 76 7a a9 3b 89 55 67 be
       0.113614 -0.03676914 0.005172069 -0.22591223
000060 3d 77 ad bd f5 4e 9c bd 62 8b 87 bd 19 ce c2 bd
       -0.084700085 -0.07632247 -0.06618382 -0.09511966
000070 14 e6 94 bd 56 7c 0a 3d 1d b7 4b 3e 5f 54 7b 3e
       -0.072704464 0.033809982 0.19894071 0.24543904
000080 31 f6 89 be 8b d1 b4 3d d3 36 65 bd d0 5b 9f 3e
       -0.26945642 0.0882903 -0.055960488 0.31124735
000090 8e 16 38 bc f9 18 e0 3e dc b4 0a be d3 c1 0f bd
       -0.011235846 0.43769053 -0.13545555 -0.035096955
0000a0 8a 6b bb bd 80 01 97 3e 83 d8 a3 3e e2 e6 fd 3e
       -0.09151371 0.29493332 0.32001123 0.49590212
0000b0 bd 99 63 be d9 9e 9d bd c0 31 12 bb ff 07 b5 3e
       -0.22226615 -0.076963134 -0.0022307485 0.35357663
0000c0 be 88 0d bd 70 6a 49 3d 95 0b 9f bd f4 5d cf 3e
       -0.034554236 0.049173772 -0.07765881 0.40501368
0000d0 12 70 e4 3e 2c 3e 22 bd 18 51 de 3e f1 61 83 bd
       0.44616753 -0.039610073 0.43421245 -0.06415165
0000e0 27 0b 8b bd f4 7f 3b 3e 1d 9d 6f be 20 2a f2 3e
       -0.067892365 0.18310529 -0.23399778 0.47297764
0000f0 e3 93 86 3e 07 8d a2 3e eb 08 6d bd 5f 92 5c 3d
       0.26284704 0.3174822 -0.057869833 0.053850528
